{
  "format": "graph-model",
  "generatedBy": "2.14.0",
  "convertedBy": "TensorFlow.js Converter v4.14.0",
  "signature": {
    "inputs": {
      "images": {
        "name": "images:0",
        "dtype": "DT_FLOAT",
        "tensorShape": { "dim": [{ "size": "1" }, { "size": "3" }, { "size": "512" }, { "size": "512" }] }
      }
    },
    "outputs": {
      "output0": {
        "name": "Identity:0",
        "dtype": "DT_FLOAT",
        "tensorShape": { "dim": [{ "size": "1" }, { "size": "15" }, { "size": "5376" }] }
      }
    }
  },
  "modelTopology": {
    "node": [
      {
        "name": "ConstantFolding/PartitionedCall/onnx_tf_prefix_/model.22/Div_1_recip",
        "op": "Const",
        "attr": { "dtype": { "type": "DT_FLOAT" }, "value": { "tensor": { "dtype": "DT_FLOAT", "tensorShape": {} } } }
      },
      {
        "name": "PartitionedCall/SelectV2_77",
        "op": "Const",
        "attr": {
          "value": { "tensor": { "dtype": "DT_INT64", "tensorShape": { "dim": [{ "size": "1" }] } } },
          "dtype": { "type": "DT_INT64" }
        }
      },
      {
        "name": "PartitionedCall/zeros_24",
        "op": "Const",
        "attr": { "dtype": { "type": "DT_INT64" }, "value": { "tensor": { "dtype": "DT_INT64", "tensorShape": {} } } }
      },
      {
        "name": "PartitionedCall/Const_107",
        "op": "Const",
        "attr": { "dtype": { "type": "DT_INT64" }, "value": { "tensor": { "dtype": "DT_INT64", "tensorShape": {} } } }
      },
      {
        "name": "PartitionedCall/Shape_29",
        "op": "Const",
        "attr": {
          "value": { "tensor": { "dtype": "DT_INT64", "tensorShape": { "dim": [{ "size": "3" }] } } },
          "dtype": { "type": "DT_INT64" }
        }
      },
      {
        "name": "PartitionedCall/ExpandDims_19",
        "op": "Const",
        "attr": {
          "dtype": { "type": "DT_INT64" },
          "value": { "tensor": { "dtype": "DT_INT64", "tensorShape": { "dim": [{ "size": "1" }, { "size": "1" }] } } }
        }
      },
      {
        "name": "PartitionedCall/Cast_48",
        "op": "Const",
        "attr": {
          "value": { "tensor": { "dtype": "DT_INT64", "tensorShape": { "dim": [{ "size": "1" }] } } },
          "dtype": { "type": "DT_INT64" }
        }
      },
      {
        "name": "PartitionedCall/SelectV2_78",
        "op": "Const",
        "attr": {
          "value": { "tensor": { "dtype": "DT_INT64", "tensorShape": { "dim": [{ "size": "1" }] } } },
          "dtype": { "type": "DT_INT64" }
        }
      },
      {
        "name": "PartitionedCall/Const_106",
        "op": "Const",
        "attr": { "value": { "tensor": { "dtype": "DT_INT64", "tensorShape": {} } }, "dtype": { "type": "DT_INT64" } }
      },
      {
        "name": "PartitionedCall/ones_17",
        "op": "Const",
        "attr": {
          "dtype": { "type": "DT_INT64" },
          "value": { "tensor": { "dtype": "DT_INT64", "tensorShape": { "dim": [{ "size": "3" }] } } }
        }
      },
      {
        "name": "unknown_182",
        "op": "Const",
        "attr": {
          "value": {
            "tensor": {
              "dtype": "DT_FLOAT",
              "tensorShape": { "dim": [{ "size": "1" }, { "size": "2" }, { "size": "5376" }] }
            }
          },
          "dtype": { "type": "DT_FLOAT" }
        }
      },
      {
        "name": "PartitionedCall/SelectV2_65",
        "op": "Const",
        "attr": {
          "value": { "tensor": { "dtype": "DT_INT64", "tensorShape": { "dim": [{ "size": "1" }] } } },
          "dtype": { "type": "DT_INT64" }
        }
      },
      {
        "name": "PartitionedCall/zeros_19",
        "op": "Const",
        "attr": { "dtype": { "type": "DT_INT64" }, "value": { "tensor": { "dtype": "DT_INT64", "tensorShape": {} } } }
      },
      {
        "name": "PartitionedCall/Const_97",
        "op": "Const",
        "attr": { "value": { "tensor": { "dtype": "DT_INT64", "tensorShape": {} } }, "dtype": { "type": "DT_INT64" } }
      },
      {
        "name": "PartitionedCall/Shape_22",
        "op": "Const",
        "attr": {
          "dtype": { "type": "DT_INT64" },
          "value": { "tensor": { "dtype": "DT_INT64", "tensorShape": { "dim": [{ "size": "3" }] } } }
        }
      },
      {
        "name": "PartitionedCall/SelectV2_66",
        "op": "Const",
        "attr": {
          "value": { "tensor": { "dtype": "DT_INT64", "tensorShape": { "dim": [{ "size": "1" }] } } },
          "dtype": { "type": "DT_INT64" }
        }
      },
      {
        "name": "PartitionedCall/Const_96",
        "op": "Const",
        "attr": { "value": { "tensor": { "dtype": "DT_INT64", "tensorShape": {} } }, "dtype": { "type": "DT_INT64" } }
      },
      {
        "name": "PartitionedCall/ExpandDims_16",
        "op": "Const",
        "attr": {
          "dtype": { "type": "DT_INT64" },
          "value": { "tensor": { "dtype": "DT_INT64", "tensorShape": { "dim": [{ "size": "1" }, { "size": "1" }] } } }
        }
      },
      {
        "name": "PartitionedCall/Cast_40",
        "op": "Const",
        "attr": {
          "dtype": { "type": "DT_INT64" },
          "value": { "tensor": { "dtype": "DT_INT64", "tensorShape": { "dim": [{ "size": "1" }] } } }
        }
      },
      {
        "name": "PartitionedCall/Const_98",
        "op": "Const",
        "attr": { "value": { "tensor": { "dtype": "DT_INT64", "tensorShape": {} } }, "dtype": { "type": "DT_INT64" } }
      },
      {
        "name": "unknown_177",
        "op": "Const",
        "attr": {
          "value": { "tensor": { "dtype": "DT_INT64", "tensorShape": { "dim": [{ "size": "4" }] } } },
          "dtype": { "type": "DT_INT64" }
        }
      },
      {
        "name": "PartitionedCall/Where_3",
        "op": "Const",
        "attr": {
          "dtype": { "type": "DT_INT64" },
          "value": { "tensor": { "dtype": "DT_INT64", "tensorShape": { "dim": [{}, { "size": "1" }] } } }
        }
      },
      {
        "name": "PartitionedCall/Cast_43",
        "op": "Const",
        "attr": {
          "dtype": { "type": "DT_INT64" },
          "value": { "tensor": { "dtype": "DT_INT64", "tensorShape": { "dim": [{ "size": "1" }] } } }
        }
      },
      {
        "name": "PartitionedCall/GatherV2_3",
        "op": "Const",
        "attr": {
          "value": { "tensor": { "dtype": "DT_INT64", "tensorShape": { "dim": [{}] } } },
          "dtype": { "type": "DT_INT64" }
        }
      },
      {
        "name": "PartitionedCall/zeros_21",
        "op": "Const",
        "attr": { "dtype": { "type": "DT_INT64" }, "value": { "tensor": { "dtype": "DT_INT64", "tensorShape": {} } } }
      },
      {
        "name": "PartitionedCall/onnx_tf_prefix_/model.22/dfl/Transpose/perm",
        "op": "Const",
        "attr": {
          "value": { "tensor": { "dtype": "DT_INT32", "tensorShape": { "dim": [{ "size": "4" }] } } },
          "dtype": { "type": "DT_INT32" }
        }
      },
      {
        "name": "PartitionedCall/concat_83",
        "op": "Const",
        "attr": {
          "dtype": { "type": "DT_INT32" },
          "value": { "tensor": { "dtype": "DT_INT32", "tensorShape": { "dim": [{ "size": "4" }] } } }
        }
      },
      {
        "name": "PartitionedCall/concat_84",
        "op": "Const",
        "attr": {
          "value": { "tensor": { "dtype": "DT_INT32", "tensorShape": { "dim": [{ "size": "4" }] } } },
          "dtype": { "type": "DT_INT32" }
        }
      },
      {
        "name": "PartitionedCall/transpose_261/perm",
        "op": "Const",
        "attr": {
          "value": { "tensor": { "dtype": "DT_INT32", "tensorShape": { "dim": [{ "size": "4" }] } } },
          "dtype": { "type": "DT_INT32" }
        }
      },
      {
        "name": "PartitionedCall/split_83",
        "op": "Const",
        "attr": {
          "dtype": { "type": "DT_FLOAT" },
          "value": {
            "tensor": {
              "dtype": "DT_FLOAT",
              "tensorShape": { "dim": [{ "size": "1" }, { "size": "1" }, { "size": "16" }, { "size": "1" }] }
            }
          }
        }
      },
      {
        "name": "PartitionedCall/transpose_262/perm",
        "op": "Const",
        "attr": {
          "value": { "tensor": { "dtype": "DT_INT32", "tensorShape": { "dim": [{ "size": "4" }] } } },
          "dtype": { "type": "DT_INT32" }
        }
      },
      {
        "name": "unknown_179",
        "op": "Const",
        "attr": {
          "dtype": { "type": "DT_INT64" },
          "value": { "tensor": { "dtype": "DT_INT64", "tensorShape": { "dim": [{ "size": "3" }] } } }
        }
      },
      {
        "name": "PartitionedCall/Where_4",
        "op": "Const",
        "attr": {
          "dtype": { "type": "DT_INT64" },
          "value": { "tensor": { "dtype": "DT_INT64", "tensorShape": { "dim": [{}, { "size": "1" }] } } }
        }
      },
      {
        "name": "PartitionedCall/Cast_44",
        "op": "Const",
        "attr": {
          "dtype": { "type": "DT_INT64" },
          "value": { "tensor": { "dtype": "DT_INT64", "tensorShape": { "dim": [{ "size": "1" }] } } }
        }
      },
      {
        "name": "PartitionedCall/GatherV2_4",
        "op": "Const",
        "attr": {
          "dtype": { "type": "DT_INT64" },
          "value": { "tensor": { "dtype": "DT_INT64", "tensorShape": { "dim": [{}] } } }
        }
      },
      {
        "name": "PartitionedCall/zeros_22",
        "op": "Const",
        "attr": { "dtype": { "type": "DT_INT64" }, "value": { "tensor": { "dtype": "DT_INT64", "tensorShape": {} } } }
      },
      {
        "name": "PartitionedCall/SelectV2_73",
        "op": "Const",
        "attr": {
          "dtype": { "type": "DT_INT64" },
          "value": { "tensor": { "dtype": "DT_INT64", "tensorShape": { "dim": [{ "size": "1" }] } } }
        }
      },
      {
        "name": "PartitionedCall/zeros_23",
        "op": "Const",
        "attr": { "dtype": { "type": "DT_INT64" }, "value": { "tensor": { "dtype": "DT_INT64", "tensorShape": {} } } }
      },
      {
        "name": "PartitionedCall/Const_105",
        "op": "Const",
        "attr": { "value": { "tensor": { "dtype": "DT_INT64", "tensorShape": {} } }, "dtype": { "type": "DT_INT64" } }
      },
      {
        "name": "PartitionedCall/Shape_28",
        "op": "Const",
        "attr": {
          "dtype": { "type": "DT_INT64" },
          "value": { "tensor": { "dtype": "DT_INT64", "tensorShape": { "dim": [{ "size": "3" }] } } }
        }
      },
      {
        "name": "PartitionedCall/ExpandDims_18",
        "op": "Const",
        "attr": {
          "value": { "tensor": { "dtype": "DT_INT64", "tensorShape": { "dim": [{ "size": "1" }, { "size": "1" }] } } },
          "dtype": { "type": "DT_INT64" }
        }
      },
      {
        "name": "PartitionedCall/Cast_46",
        "op": "Const",
        "attr": {
          "dtype": { "type": "DT_INT64" },
          "value": { "tensor": { "dtype": "DT_INT64", "tensorShape": { "dim": [{ "size": "1" }] } } }
        }
      },
      {
        "name": "PartitionedCall/SelectV2_74",
        "op": "Const",
        "attr": {
          "dtype": { "type": "DT_INT64" },
          "value": { "tensor": { "dtype": "DT_INT64", "tensorShape": { "dim": [{ "size": "1" }] } } }
        }
      },
      {
        "name": "PartitionedCall/Const_104",
        "op": "Const",
        "attr": { "dtype": { "type": "DT_INT64" }, "value": { "tensor": { "dtype": "DT_INT64", "tensorShape": {} } } }
      },
      {
        "name": "PartitionedCall/ones_16",
        "op": "Const",
        "attr": {
          "value": { "tensor": { "dtype": "DT_INT64", "tensorShape": { "dim": [{ "size": "3" }] } } },
          "dtype": { "type": "DT_INT64" }
        }
      },
      {
        "name": "PartitionedCall/onnx_tf_prefix_/model.22/Concat_4/axis",
        "op": "Const",
        "attr": { "dtype": { "type": "DT_INT32" }, "value": { "tensor": { "dtype": "DT_INT32", "tensorShape": {} } } }
      },
      {
        "name": "unknown_184",
        "op": "Const",
        "attr": {
          "value": {
            "tensor": { "dtype": "DT_FLOAT", "tensorShape": { "dim": [{ "size": "1" }, { "size": "5376" }] } }
          },
          "dtype": { "type": "DT_FLOAT" }
        }
      },
      {
        "name": "PartitionedCall/Const_64",
        "op": "Const",
        "attr": {
          "dtype": { "type": "DT_INT32" },
          "value": { "tensor": { "dtype": "DT_INT32", "tensorShape": { "dim": [{ "size": "4" }, { "size": "2" }] } } }
        }
      },
      {
        "name": "PartitionedCall/transpose_167/perm",
        "op": "Const",
        "attr": {
          "dtype": { "type": "DT_INT32" },
          "value": { "tensor": { "dtype": "DT_INT32", "tensorShape": { "dim": [{ "size": "4" }] } } }
        }
      },
      {
        "name": "PartitionedCall/split_52",
        "op": "Const",
        "attr": {
          "value": {
            "tensor": {
              "dtype": "DT_FLOAT",
              "tensorShape": { "dim": [{ "size": "3" }, { "size": "3" }, { "size": "192" }, { "size": "64" }] }
            }
          },
          "dtype": { "type": "DT_FLOAT" }
        }
      },
      {
        "name": "unknown_113",
        "op": "Const",
        "attr": {
          "value": { "tensor": { "dtype": "DT_FLOAT", "tensorShape": { "dim": [{ "size": "64" }] } } },
          "dtype": { "type": "DT_FLOAT" }
        }
      },
      {
        "name": "PartitionedCall/transpose_168/perm",
        "op": "Const",
        "attr": {
          "dtype": { "type": "DT_INT32" },
          "value": { "tensor": { "dtype": "DT_INT32", "tensorShape": { "dim": [{ "size": "4" }] } } }
        }
      },
      {
        "name": "PartitionedCall/Const_66",
        "op": "Const",
        "attr": {
          "value": { "tensor": { "dtype": "DT_INT32", "tensorShape": { "dim": [{ "size": "4" }, { "size": "2" }] } } },
          "dtype": { "type": "DT_INT32" }
        }
      },
      {
        "name": "PartitionedCall/transpose_173/perm",
        "op": "Const",
        "attr": {
          "dtype": { "type": "DT_INT32" },
          "value": { "tensor": { "dtype": "DT_INT32", "tensorShape": { "dim": [{ "size": "4" }] } } }
        }
      },
      {
        "name": "PartitionedCall/split_54",
        "op": "Const",
        "attr": {
          "value": {
            "tensor": {
              "dtype": "DT_FLOAT",
              "tensorShape": { "dim": [{ "size": "3" }, { "size": "3" }, { "size": "64" }, { "size": "64" }] }
            }
          },
          "dtype": { "type": "DT_FLOAT" }
        }
      },
      {
        "name": "unknown_117",
        "op": "Const",
        "attr": {
          "value": { "tensor": { "dtype": "DT_FLOAT", "tensorShape": { "dim": [{ "size": "64" }] } } },
          "dtype": { "type": "DT_FLOAT" }
        }
      },
      {
        "name": "PartitionedCall/transpose_174/perm",
        "op": "Const",
        "attr": {
          "value": { "tensor": { "dtype": "DT_INT32", "tensorShape": { "dim": [{ "size": "4" }] } } },
          "dtype": { "type": "DT_INT32" }
        }
      },
      {
        "name": "PartitionedCall/transpose_182/perm",
        "op": "Const",
        "attr": {
          "dtype": { "type": "DT_INT32" },
          "value": { "tensor": { "dtype": "DT_INT32", "tensorShape": { "dim": [{ "size": "4" }] } } }
        }
      },
      {
        "name": "PartitionedCall/split_57",
        "op": "Const",
        "attr": {
          "dtype": { "type": "DT_FLOAT" },
          "value": {
            "tensor": {
              "dtype": "DT_FLOAT",
              "tensorShape": { "dim": [{ "size": "1" }, { "size": "1" }, { "size": "64" }, { "size": "64" }] }
            }
          }
        }
      },
      {
        "name": "unknown_123",
        "op": "Const",
        "attr": {
          "value": { "tensor": { "dtype": "DT_FLOAT", "tensorShape": { "dim": [{ "size": "64" }] } } },
          "dtype": { "type": "DT_FLOAT" }
        }
      },
      {
        "name": "PartitionedCall/transpose_183/perm",
        "op": "Const",
        "attr": {
          "dtype": { "type": "DT_INT32" },
          "value": { "tensor": { "dtype": "DT_INT32", "tensorShape": { "dim": [{ "size": "4" }] } } }
        }
      },
      {
        "name": "PartitionedCall/Const_65",
        "op": "Const",
        "attr": {
          "dtype": { "type": "DT_INT32" },
          "value": { "tensor": { "dtype": "DT_INT32", "tensorShape": { "dim": [{ "size": "4" }, { "size": "2" }] } } }
        }
      },
      {
        "name": "PartitionedCall/transpose_170/perm",
        "op": "Const",
        "attr": {
          "value": { "tensor": { "dtype": "DT_INT32", "tensorShape": { "dim": [{ "size": "4" }] } } },
          "dtype": { "type": "DT_INT32" }
        }
      },
      {
        "name": "PartitionedCall/split_53",
        "op": "Const",
        "attr": {
          "value": {
            "tensor": {
              "dtype": "DT_FLOAT",
              "tensorShape": { "dim": [{ "size": "3" }, { "size": "3" }, { "size": "192" }, { "size": "192" }] }
            }
          },
          "dtype": { "type": "DT_FLOAT" }
        }
      },
      {
        "name": "unknown_115",
        "op": "Const",
        "attr": {
          "dtype": { "type": "DT_FLOAT" },
          "value": { "tensor": { "dtype": "DT_FLOAT", "tensorShape": { "dim": [{ "size": "192" }] } } }
        }
      },
      {
        "name": "PartitionedCall/transpose_171/perm",
        "op": "Const",
        "attr": {
          "value": { "tensor": { "dtype": "DT_INT32", "tensorShape": { "dim": [{ "size": "4" }] } } },
          "dtype": { "type": "DT_INT32" }
        }
      },
      {
        "name": "PartitionedCall/Const_67",
        "op": "Const",
        "attr": {
          "dtype": { "type": "DT_INT32" },
          "value": { "tensor": { "dtype": "DT_INT32", "tensorShape": { "dim": [{ "size": "4" }, { "size": "2" }] } } }
        }
      },
      {
        "name": "PartitionedCall/transpose_176/perm",
        "op": "Const",
        "attr": {
          "dtype": { "type": "DT_INT32" },
          "value": { "tensor": { "dtype": "DT_INT32", "tensorShape": { "dim": [{ "size": "4" }] } } }
        }
      },
      {
        "name": "PartitionedCall/split_55",
        "op": "Const",
        "attr": {
          "value": {
            "tensor": {
              "dtype": "DT_FLOAT",
              "tensorShape": { "dim": [{ "size": "3" }, { "size": "3" }, { "size": "192" }, { "size": "192" }] }
            }
          },
          "dtype": { "type": "DT_FLOAT" }
        }
      },
      {
        "name": "unknown_119",
        "op": "Const",
        "attr": {
          "value": { "tensor": { "dtype": "DT_FLOAT", "tensorShape": { "dim": [{ "size": "192" }] } } },
          "dtype": { "type": "DT_FLOAT" }
        }
      },
      {
        "name": "PartitionedCall/transpose_177/perm",
        "op": "Const",
        "attr": {
          "dtype": { "type": "DT_INT32" },
          "value": { "tensor": { "dtype": "DT_INT32", "tensorShape": { "dim": [{ "size": "4" }] } } }
        }
      },
      {
        "name": "PartitionedCall/transpose_185/perm",
        "op": "Const",
        "attr": {
          "value": { "tensor": { "dtype": "DT_INT32", "tensorShape": { "dim": [{ "size": "4" }] } } },
          "dtype": { "type": "DT_INT32" }
        }
      },
      {
        "name": "PartitionedCall/split_58",
        "op": "Const",
        "attr": {
          "dtype": { "type": "DT_FLOAT" },
          "value": {
            "tensor": {
              "dtype": "DT_FLOAT",
              "tensorShape": { "dim": [{ "size": "1" }, { "size": "1" }, { "size": "192" }, { "size": "11" }] }
            }
          }
        }
      },
      {
        "name": "unknown_125",
        "op": "Const",
        "attr": {
          "dtype": { "type": "DT_FLOAT" },
          "value": { "tensor": { "dtype": "DT_FLOAT", "tensorShape": { "dim": [{ "size": "11" }] } } }
        }
      },
      {
        "name": "PartitionedCall/transpose_186/perm",
        "op": "Const",
        "attr": {
          "dtype": { "type": "DT_INT32" },
          "value": { "tensor": { "dtype": "DT_INT32", "tensorShape": { "dim": [{ "size": "4" }] } } }
        }
      },
      {
        "name": "PartitionedCall/onnx_tf_prefix_/model.22/Concat/axis",
        "op": "Const",
        "attr": { "value": { "tensor": { "dtype": "DT_INT32", "tensorShape": {} } }, "dtype": { "type": "DT_INT32" } }
      },
      {
        "name": "PartitionedCall/Where",
        "op": "Const",
        "attr": {
          "value": { "tensor": { "dtype": "DT_INT64", "tensorShape": { "dim": [{}, { "size": "1" }] } } },
          "dtype": { "type": "DT_INT64" }
        }
      },
      {
        "name": "PartitionedCall/Cast_32",
        "op": "Const",
        "attr": {
          "dtype": { "type": "DT_INT64" },
          "value": { "tensor": { "dtype": "DT_INT64", "tensorShape": { "dim": [{ "size": "1" }] } } }
        }
      },
      {
        "name": "PartitionedCall/GatherV2",
        "op": "Const",
        "attr": {
          "dtype": { "type": "DT_INT64" },
          "value": { "tensor": { "dtype": "DT_INT64", "tensorShape": { "dim": [{}] } } }
        }
      },
      {
        "name": "PartitionedCall/zeros_14",
        "op": "Const",
        "attr": { "dtype": { "type": "DT_INT64" }, "value": { "tensor": { "dtype": "DT_INT64", "tensorShape": {} } } }
      },
      {
        "name": "PartitionedCall/Const_78",
        "op": "Const",
        "attr": {
          "value": { "tensor": { "dtype": "DT_INT32", "tensorShape": { "dim": [{ "size": "4" }, { "size": "2" }] } } },
          "dtype": { "type": "DT_INT32" }
        }
      },
      {
        "name": "PartitionedCall/transpose_206/perm",
        "op": "Const",
        "attr": {
          "value": { "tensor": { "dtype": "DT_INT32", "tensorShape": { "dim": [{ "size": "4" }] } } },
          "dtype": { "type": "DT_INT32" }
        }
      },
      {
        "name": "PartitionedCall/split_65",
        "op": "Const",
        "attr": {
          "value": {
            "tensor": {
              "dtype": "DT_FLOAT",
              "tensorShape": { "dim": [{ "size": "3" }, { "size": "3" }, { "size": "384" }, { "size": "64" }] }
            }
          },
          "dtype": { "type": "DT_FLOAT" }
        }
      },
      {
        "name": "unknown_140",
        "op": "Const",
        "attr": {
          "value": { "tensor": { "dtype": "DT_FLOAT", "tensorShape": { "dim": [{ "size": "64" }] } } },
          "dtype": { "type": "DT_FLOAT" }
        }
      },
      {
        "name": "PartitionedCall/transpose_207/perm",
        "op": "Const",
        "attr": {
          "value": { "tensor": { "dtype": "DT_INT32", "tensorShape": { "dim": [{ "size": "4" }] } } },
          "dtype": { "type": "DT_INT32" }
        }
      },
      {
        "name": "PartitionedCall/Const_80",
        "op": "Const",
        "attr": {
          "dtype": { "type": "DT_INT32" },
          "value": { "tensor": { "dtype": "DT_INT32", "tensorShape": { "dim": [{ "size": "4" }, { "size": "2" }] } } }
        }
      },
      {
        "name": "PartitionedCall/transpose_212/perm",
        "op": "Const",
        "attr": {
          "value": { "tensor": { "dtype": "DT_INT32", "tensorShape": { "dim": [{ "size": "4" }] } } },
          "dtype": { "type": "DT_INT32" }
        }
      },
      {
        "name": "PartitionedCall/split_67",
        "op": "Const",
        "attr": {
          "value": {
            "tensor": {
              "dtype": "DT_FLOAT",
              "tensorShape": { "dim": [{ "size": "3" }, { "size": "3" }, { "size": "64" }, { "size": "64" }] }
            }
          },
          "dtype": { "type": "DT_FLOAT" }
        }
      },
      {
        "name": "unknown_144",
        "op": "Const",
        "attr": {
          "value": { "tensor": { "dtype": "DT_FLOAT", "tensorShape": { "dim": [{ "size": "64" }] } } },
          "dtype": { "type": "DT_FLOAT" }
        }
      },
      {
        "name": "PartitionedCall/transpose_213/perm",
        "op": "Const",
        "attr": {
          "value": { "tensor": { "dtype": "DT_INT32", "tensorShape": { "dim": [{ "size": "4" }] } } },
          "dtype": { "type": "DT_INT32" }
        }
      },
      {
        "name": "PartitionedCall/transpose_221/perm",
        "op": "Const",
        "attr": {
          "dtype": { "type": "DT_INT32" },
          "value": { "tensor": { "dtype": "DT_INT32", "tensorShape": { "dim": [{ "size": "4" }] } } }
        }
      },
      {
        "name": "PartitionedCall/split_70",
        "op": "Const",
        "attr": {
          "dtype": { "type": "DT_FLOAT" },
          "value": {
            "tensor": {
              "dtype": "DT_FLOAT",
              "tensorShape": { "dim": [{ "size": "1" }, { "size": "1" }, { "size": "64" }, { "size": "64" }] }
            }
          }
        }
      },
      {
        "name": "unknown_150",
        "op": "Const",
        "attr": {
          "dtype": { "type": "DT_FLOAT" },
          "value": { "tensor": { "dtype": "DT_FLOAT", "tensorShape": { "dim": [{ "size": "64" }] } } }
        }
      },
      {
        "name": "PartitionedCall/transpose_222/perm",
        "op": "Const",
        "attr": {
          "dtype": { "type": "DT_INT32" },
          "value": { "tensor": { "dtype": "DT_INT32", "tensorShape": { "dim": [{ "size": "4" }] } } }
        }
      },
      {
        "name": "PartitionedCall/Const_79",
        "op": "Const",
        "attr": {
          "value": { "tensor": { "dtype": "DT_INT32", "tensorShape": { "dim": [{ "size": "4" }, { "size": "2" }] } } },
          "dtype": { "type": "DT_INT32" }
        }
      },
      {
        "name": "PartitionedCall/transpose_209/perm",
        "op": "Const",
        "attr": {
          "dtype": { "type": "DT_INT32" },
          "value": { "tensor": { "dtype": "DT_INT32", "tensorShape": { "dim": [{ "size": "4" }] } } }
        }
      },
      {
        "name": "PartitionedCall/split_66",
        "op": "Const",
        "attr": {
          "value": {
            "tensor": {
              "dtype": "DT_FLOAT",
              "tensorShape": { "dim": [{ "size": "3" }, { "size": "3" }, { "size": "384" }, { "size": "192" }] }
            }
          },
          "dtype": { "type": "DT_FLOAT" }
        }
      },
      {
        "name": "unknown_142",
        "op": "Const",
        "attr": {
          "value": { "tensor": { "dtype": "DT_FLOAT", "tensorShape": { "dim": [{ "size": "192" }] } } },
          "dtype": { "type": "DT_FLOAT" }
        }
      },
      {
        "name": "PartitionedCall/transpose_210/perm",
        "op": "Const",
        "attr": {
          "dtype": { "type": "DT_INT32" },
          "value": { "tensor": { "dtype": "DT_INT32", "tensorShape": { "dim": [{ "size": "4" }] } } }
        }
      },
      {
        "name": "PartitionedCall/Const_81",
        "op": "Const",
        "attr": {
          "dtype": { "type": "DT_INT32" },
          "value": { "tensor": { "dtype": "DT_INT32", "tensorShape": { "dim": [{ "size": "4" }, { "size": "2" }] } } }
        }
      },
      {
        "name": "PartitionedCall/transpose_215/perm",
        "op": "Const",
        "attr": {
          "dtype": { "type": "DT_INT32" },
          "value": { "tensor": { "dtype": "DT_INT32", "tensorShape": { "dim": [{ "size": "4" }] } } }
        }
      },
      {
        "name": "PartitionedCall/split_68",
        "op": "Const",
        "attr": {
          "dtype": { "type": "DT_FLOAT" },
          "value": {
            "tensor": {
              "dtype": "DT_FLOAT",
              "tensorShape": { "dim": [{ "size": "3" }, { "size": "3" }, { "size": "192" }, { "size": "192" }] }
            }
          }
        }
      },
      {
        "name": "unknown_146",
        "op": "Const",
        "attr": {
          "value": { "tensor": { "dtype": "DT_FLOAT", "tensorShape": { "dim": [{ "size": "192" }] } } },
          "dtype": { "type": "DT_FLOAT" }
        }
      },
      {
        "name": "PartitionedCall/transpose_216/perm",
        "op": "Const",
        "attr": {
          "dtype": { "type": "DT_INT32" },
          "value": { "tensor": { "dtype": "DT_INT32", "tensorShape": { "dim": [{ "size": "4" }] } } }
        }
      },
      {
        "name": "PartitionedCall/transpose_224/perm",
        "op": "Const",
        "attr": {
          "value": { "tensor": { "dtype": "DT_INT32", "tensorShape": { "dim": [{ "size": "4" }] } } },
          "dtype": { "type": "DT_INT32" }
        }
      },
      {
        "name": "PartitionedCall/split_71",
        "op": "Const",
        "attr": {
          "value": {
            "tensor": {
              "dtype": "DT_FLOAT",
              "tensorShape": { "dim": [{ "size": "1" }, { "size": "1" }, { "size": "192" }, { "size": "11" }] }
            }
          },
          "dtype": { "type": "DT_FLOAT" }
        }
      },
      {
        "name": "unknown_152",
        "op": "Const",
        "attr": {
          "dtype": { "type": "DT_FLOAT" },
          "value": { "tensor": { "dtype": "DT_FLOAT", "tensorShape": { "dim": [{ "size": "11" }] } } }
        }
      },
      {
        "name": "PartitionedCall/transpose_225/perm",
        "op": "Const",
        "attr": {
          "value": { "tensor": { "dtype": "DT_INT32", "tensorShape": { "dim": [{ "size": "4" }] } } },
          "dtype": { "type": "DT_INT32" }
        }
      },
      {
        "name": "PartitionedCall/onnx_tf_prefix_/model.22/Concat_1/axis",
        "op": "Const",
        "attr": { "value": { "tensor": { "dtype": "DT_INT32", "tensorShape": {} } }, "dtype": { "type": "DT_INT32" } }
      },
      {
        "name": "PartitionedCall/Where_1",
        "op": "Const",
        "attr": {
          "value": { "tensor": { "dtype": "DT_INT64", "tensorShape": { "dim": [{}, { "size": "1" }] } } },
          "dtype": { "type": "DT_INT64" }
        }
      },
      {
        "name": "PartitionedCall/Cast_37",
        "op": "Const",
        "attr": {
          "dtype": { "type": "DT_INT64" },
          "value": { "tensor": { "dtype": "DT_INT64", "tensorShape": { "dim": [{ "size": "1" }] } } }
        }
      },
      {
        "name": "PartitionedCall/GatherV2_1",
        "op": "Const",
        "attr": {
          "value": { "tensor": { "dtype": "DT_INT64", "tensorShape": { "dim": [{}] } } },
          "dtype": { "type": "DT_INT64" }
        }
      },
      {
        "name": "PartitionedCall/zeros_17",
        "op": "Const",
        "attr": { "dtype": { "type": "DT_INT64" }, "value": { "tensor": { "dtype": "DT_INT64", "tensorShape": {} } } }
      },
      {
        "name": "PartitionedCall/Const_91",
        "op": "Const",
        "attr": {
          "dtype": { "type": "DT_INT32" },
          "value": { "tensor": { "dtype": "DT_INT32", "tensorShape": { "dim": [{ "size": "4" }, { "size": "2" }] } } }
        }
      },
      {
        "name": "PartitionedCall/transpose_242/perm",
        "op": "Const",
        "attr": {
          "value": { "tensor": { "dtype": "DT_INT32", "tensorShape": { "dim": [{ "size": "4" }] } } },
          "dtype": { "type": "DT_INT32" }
        }
      },
      {
        "name": "PartitionedCall/split_77",
        "op": "Const",
        "attr": {
          "dtype": { "type": "DT_FLOAT" },
          "value": {
            "tensor": {
              "dtype": "DT_FLOAT",
              "tensorShape": { "dim": [{ "size": "3" }, { "size": "3" }, { "size": "576" }, { "size": "64" }] }
            }
          }
        }
      },
      {
        "name": "unknown_164",
        "op": "Const",
        "attr": {
          "dtype": { "type": "DT_FLOAT" },
          "value": { "tensor": { "dtype": "DT_FLOAT", "tensorShape": { "dim": [{ "size": "64" }] } } }
        }
      },
      {
        "name": "PartitionedCall/transpose_243/perm",
        "op": "Const",
        "attr": {
          "dtype": { "type": "DT_INT32" },
          "value": { "tensor": { "dtype": "DT_INT32", "tensorShape": { "dim": [{ "size": "4" }] } } }
        }
      },
      {
        "name": "PartitionedCall/Const_93",
        "op": "Const",
        "attr": {
          "dtype": { "type": "DT_INT32" },
          "value": { "tensor": { "dtype": "DT_INT32", "tensorShape": { "dim": [{ "size": "4" }, { "size": "2" }] } } }
        }
      },
      {
        "name": "PartitionedCall/transpose_248/perm",
        "op": "Const",
        "attr": {
          "dtype": { "type": "DT_INT32" },
          "value": { "tensor": { "dtype": "DT_INT32", "tensorShape": { "dim": [{ "size": "4" }] } } }
        }
      },
      {
        "name": "PartitionedCall/split_79",
        "op": "Const",
        "attr": {
          "value": {
            "tensor": {
              "dtype": "DT_FLOAT",
              "tensorShape": { "dim": [{ "size": "3" }, { "size": "3" }, { "size": "64" }, { "size": "64" }] }
            }
          },
          "dtype": { "type": "DT_FLOAT" }
        }
      },
      {
        "name": "unknown_168",
        "op": "Const",
        "attr": {
          "value": { "tensor": { "dtype": "DT_FLOAT", "tensorShape": { "dim": [{ "size": "64" }] } } },
          "dtype": { "type": "DT_FLOAT" }
        }
      },
      {
        "name": "PartitionedCall/transpose_249/perm",
        "op": "Const",
        "attr": {
          "dtype": { "type": "DT_INT32" },
          "value": { "tensor": { "dtype": "DT_INT32", "tensorShape": { "dim": [{ "size": "4" }] } } }
        }
      },
      {
        "name": "PartitionedCall/transpose_254/perm",
        "op": "Const",
        "attr": {
          "dtype": { "type": "DT_INT32" },
          "value": { "tensor": { "dtype": "DT_INT32", "tensorShape": { "dim": [{ "size": "4" }] } } }
        }
      },
      {
        "name": "PartitionedCall/split_81",
        "op": "Const",
        "attr": {
          "dtype": { "type": "DT_FLOAT" },
          "value": {
            "tensor": {
              "dtype": "DT_FLOAT",
              "tensorShape": { "dim": [{ "size": "1" }, { "size": "1" }, { "size": "64" }, { "size": "64" }] }
            }
          }
        }
      },
      {
        "name": "unknown_172",
        "op": "Const",
        "attr": {
          "dtype": { "type": "DT_FLOAT" },
          "value": { "tensor": { "dtype": "DT_FLOAT", "tensorShape": { "dim": [{ "size": "64" }] } } }
        }
      },
      {
        "name": "PartitionedCall/transpose_255/perm",
        "op": "Const",
        "attr": {
          "dtype": { "type": "DT_INT32" },
          "value": { "tensor": { "dtype": "DT_INT32", "tensorShape": { "dim": [{ "size": "4" }] } } }
        }
      },
      {
        "name": "PartitionedCall/SelectV2_57",
        "op": "Const",
        "attr": {
          "dtype": { "type": "DT_INT64" },
          "value": { "tensor": { "dtype": "DT_INT64", "tensorShape": { "dim": [{ "size": "1" }] } } }
        }
      },
      {
        "name": "PartitionedCall/zeros_15",
        "op": "Const",
        "attr": { "dtype": { "type": "DT_INT64" }, "value": { "tensor": { "dtype": "DT_INT64", "tensorShape": {} } } }
      },
      {
        "name": "PartitionedCall/Const_83",
        "op": "Const",
        "attr": { "dtype": { "type": "DT_INT64" }, "value": { "tensor": { "dtype": "DT_INT64", "tensorShape": {} } } }
      },
      {
        "name": "PartitionedCall/Shape_16",
        "op": "Const",
        "attr": {
          "value": { "tensor": { "dtype": "DT_INT64", "tensorShape": { "dim": [{ "size": "4" }] } } },
          "dtype": { "type": "DT_INT64" }
        }
      },
      {
        "name": "PartitionedCall/ExpandDims_14",
        "op": "Const",
        "attr": {
          "value": { "tensor": { "dtype": "DT_INT64", "tensorShape": { "dim": [{ "size": "1" }, { "size": "1" }] } } },
          "dtype": { "type": "DT_INT64" }
        }
      },
      {
        "name": "PartitionedCall/Cast_34",
        "op": "Const",
        "attr": {
          "value": { "tensor": { "dtype": "DT_INT64", "tensorShape": { "dim": [{ "size": "1" }] } } },
          "dtype": { "type": "DT_INT64" }
        }
      },
      {
        "name": "PartitionedCall/SelectV2_58",
        "op": "Const",
        "attr": {
          "dtype": { "type": "DT_INT64" },
          "value": { "tensor": { "dtype": "DT_INT64", "tensorShape": { "dim": [{ "size": "1" }] } } }
        }
      },
      {
        "name": "PartitionedCall/Const_82",
        "op": "Const",
        "attr": { "value": { "tensor": { "dtype": "DT_INT64", "tensorShape": {} } }, "dtype": { "type": "DT_INT64" } }
      },
      {
        "name": "PartitionedCall/ones_14",
        "op": "Const",
        "attr": {
          "dtype": { "type": "DT_INT64" },
          "value": { "tensor": { "dtype": "DT_INT64", "tensorShape": { "dim": [{ "size": "4" }] } } }
        }
      },
      {
        "name": "PartitionedCall/SelectV2_49",
        "op": "Const",
        "attr": {
          "value": { "tensor": { "dtype": "DT_INT64", "tensorShape": { "dim": [{ "size": "1" }] } } },
          "dtype": { "type": "DT_INT64" }
        }
      },
      {
        "name": "PartitionedCall/zeros_12",
        "op": "Const",
        "attr": { "dtype": { "type": "DT_INT64" }, "value": { "tensor": { "dtype": "DT_INT64", "tensorShape": {} } } }
      },
      {
        "name": "PartitionedCall/Const_69",
        "op": "Const",
        "attr": { "dtype": { "type": "DT_INT64" }, "value": { "tensor": { "dtype": "DT_INT64", "tensorShape": {} } } }
      },
      {
        "name": "PartitionedCall/Shape_12",
        "op": "Const",
        "attr": {
          "dtype": { "type": "DT_INT64" },
          "value": { "tensor": { "dtype": "DT_INT64", "tensorShape": { "dim": [{ "size": "4" }] } } }
        }
      },
      {
        "name": "PartitionedCall/ExpandDims_12",
        "op": "Const",
        "attr": {
          "dtype": { "type": "DT_INT64" },
          "value": { "tensor": { "dtype": "DT_INT64", "tensorShape": { "dim": [{ "size": "1" }, { "size": "1" }] } } }
        }
      },
      {
        "name": "PartitionedCall/Cast_29",
        "op": "Const",
        "attr": {
          "value": { "tensor": { "dtype": "DT_INT64", "tensorShape": { "dim": [{ "size": "1" }] } } },
          "dtype": { "type": "DT_INT64" }
        }
      },
      {
        "name": "PartitionedCall/SelectV2_50",
        "op": "Const",
        "attr": {
          "dtype": { "type": "DT_INT64" },
          "value": { "tensor": { "dtype": "DT_INT64", "tensorShape": { "dim": [{ "size": "1" }] } } }
        }
      },
      {
        "name": "PartitionedCall/Const_68",
        "op": "Const",
        "attr": { "dtype": { "type": "DT_INT64" }, "value": { "tensor": { "dtype": "DT_INT64", "tensorShape": {} } } }
      },
      {
        "name": "PartitionedCall/ones_12",
        "op": "Const",
        "attr": {
          "value": { "tensor": { "dtype": "DT_INT64", "tensorShape": { "dim": [{ "size": "4" }] } } },
          "dtype": { "type": "DT_INT64" }
        }
      },
      {
        "name": "PartitionedCall/SelectV2_41",
        "op": "Const",
        "attr": {
          "dtype": { "type": "DT_INT64" },
          "value": { "tensor": { "dtype": "DT_INT64", "tensorShape": { "dim": [{ "size": "1" }] } } }
        }
      },
      {
        "name": "PartitionedCall/zeros_10",
        "op": "Const",
        "attr": { "dtype": { "type": "DT_INT64" }, "value": { "tensor": { "dtype": "DT_INT64", "tensorShape": {} } } }
      },
      {
        "name": "PartitionedCall/Const_56",
        "op": "Const",
        "attr": { "dtype": { "type": "DT_INT64" }, "value": { "tensor": { "dtype": "DT_INT64", "tensorShape": {} } } }
      },
      {
        "name": "PartitionedCall/Shape_10",
        "op": "Const",
        "attr": {
          "value": { "tensor": { "dtype": "DT_INT64", "tensorShape": { "dim": [{ "size": "4" }] } } },
          "dtype": { "type": "DT_INT64" }
        }
      },
      {
        "name": "PartitionedCall/ExpandDims_10",
        "op": "Const",
        "attr": {
          "value": { "tensor": { "dtype": "DT_INT64", "tensorShape": { "dim": [{ "size": "1" }, { "size": "1" }] } } },
          "dtype": { "type": "DT_INT64" }
        }
      },
      {
        "name": "PartitionedCall/Cast_25",
        "op": "Const",
        "attr": {
          "dtype": { "type": "DT_INT64" },
          "value": { "tensor": { "dtype": "DT_INT64", "tensorShape": { "dim": [{ "size": "1" }] } } }
        }
      },
      {
        "name": "PartitionedCall/SelectV2_42",
        "op": "Const",
        "attr": {
          "value": { "tensor": { "dtype": "DT_INT64", "tensorShape": { "dim": [{ "size": "1" }] } } },
          "dtype": { "type": "DT_INT64" }
        }
      },
      {
        "name": "PartitionedCall/Const_55",
        "op": "Const",
        "attr": { "dtype": { "type": "DT_INT64" }, "value": { "tensor": { "dtype": "DT_INT64", "tensorShape": {} } } }
      },
      {
        "name": "PartitionedCall/ones_10",
        "op": "Const",
        "attr": {
          "value": { "tensor": { "dtype": "DT_INT64", "tensorShape": { "dim": [{ "size": "4" }] } } },
          "dtype": { "type": "DT_INT64" }
        }
      },
      {
        "name": "PartitionedCall/transpose_143/perm",
        "op": "Const",
        "attr": {
          "value": { "tensor": { "dtype": "DT_INT32", "tensorShape": { "dim": [{ "size": "4" }] } } },
          "dtype": { "type": "DT_INT32" }
        }
      },
      {
        "name": "PartitionedCall/Cast_23",
        "op": "Const",
        "attr": {
          "dtype": { "type": "DT_INT32" },
          "value": { "tensor": { "dtype": "DT_INT32", "tensorShape": { "dim": [{ "size": "2" }] } } }
        }
      },
      {
        "name": "PartitionedCall/transpose_144/perm",
        "op": "Const",
        "attr": {
          "dtype": { "type": "DT_INT32" },
          "value": { "tensor": { "dtype": "DT_INT32", "tensorShape": { "dim": [{ "size": "4" }] } } }
        }
      },
      {
        "name": "PartitionedCall/onnx_tf_prefix_/model.14/Concat/axis",
        "op": "Const",
        "attr": { "dtype": { "type": "DT_INT32" }, "value": { "tensor": { "dtype": "DT_INT32", "tensorShape": {} } } }
      },
      {
        "name": "PartitionedCall/transpose_146/perm",
        "op": "Const",
        "attr": {
          "value": { "tensor": { "dtype": "DT_INT32", "tensorShape": { "dim": [{ "size": "4" }] } } },
          "dtype": { "type": "DT_INT32" }
        }
      },
      {
        "name": "PartitionedCall/split_45",
        "op": "Const",
        "attr": {
          "dtype": { "type": "DT_FLOAT" },
          "value": {
            "tensor": {
              "dtype": "DT_FLOAT",
              "tensorShape": { "dim": [{ "size": "1" }, { "size": "1" }, { "size": "576" }, { "size": "192" }] }
            }
          }
        }
      },
      {
        "name": "unknown_99",
        "op": "Const",
        "attr": {
          "value": { "tensor": { "dtype": "DT_FLOAT", "tensorShape": { "dim": [{ "size": "192" }] } } },
          "dtype": { "type": "DT_FLOAT" }
        }
      },
      {
        "name": "PartitionedCall/transpose_147/perm",
        "op": "Const",
        "attr": {
          "dtype": { "type": "DT_INT32" },
          "value": { "tensor": { "dtype": "DT_INT32", "tensorShape": { "dim": [{ "size": "4" }] } } }
        }
      },
      {
        "name": "PartitionedCall/SelectV2_45",
        "op": "Const",
        "attr": {
          "dtype": { "type": "DT_INT64" },
          "value": { "tensor": { "dtype": "DT_INT64", "tensorShape": { "dim": [{ "size": "1" }] } } }
        }
      },
      {
        "name": "PartitionedCall/zeros_11",
        "op": "Const",
        "attr": { "value": { "tensor": { "dtype": "DT_INT64", "tensorShape": {} } }, "dtype": { "type": "DT_INT64" } }
      },
      {
        "name": "PartitionedCall/Const_58",
        "op": "Const",
        "attr": { "value": { "tensor": { "dtype": "DT_INT64", "tensorShape": {} } }, "dtype": { "type": "DT_INT64" } }
      },
      {
        "name": "PartitionedCall/Shape_11",
        "op": "Const",
        "attr": {
          "value": { "tensor": { "dtype": "DT_INT64", "tensorShape": { "dim": [{ "size": "4" }] } } },
          "dtype": { "type": "DT_INT64" }
        }
      },
      {
        "name": "PartitionedCall/ExpandDims_11",
        "op": "Const",
        "attr": {
          "dtype": { "type": "DT_INT64" },
          "value": { "tensor": { "dtype": "DT_INT64", "tensorShape": { "dim": [{ "size": "1" }, { "size": "1" }] } } }
        }
      },
      {
        "name": "PartitionedCall/Cast_27",
        "op": "Const",
        "attr": {
          "value": { "tensor": { "dtype": "DT_INT64", "tensorShape": { "dim": [{ "size": "1" }] } } },
          "dtype": { "type": "DT_INT64" }
        }
      },
      {
        "name": "PartitionedCall/SelectV2_46",
        "op": "Const",
        "attr": {
          "dtype": { "type": "DT_INT64" },
          "value": { "tensor": { "dtype": "DT_INT64", "tensorShape": { "dim": [{ "size": "1" }] } } }
        }
      },
      {
        "name": "PartitionedCall/Const_57",
        "op": "Const",
        "attr": { "value": { "tensor": { "dtype": "DT_INT64", "tensorShape": {} } }, "dtype": { "type": "DT_INT64" } }
      },
      {
        "name": "PartitionedCall/ones_11",
        "op": "Const",
        "attr": {
          "dtype": { "type": "DT_INT64" },
          "value": { "tensor": { "dtype": "DT_INT64", "tensorShape": { "dim": [{ "size": "4" }] } } }
        }
      },
      {
        "name": "PartitionedCall/Const_59",
        "op": "Const",
        "attr": {
          "value": { "tensor": { "dtype": "DT_INT32", "tensorShape": { "dim": [{ "size": "4" }, { "size": "2" }] } } },
          "dtype": { "type": "DT_INT32" }
        }
      },
      {
        "name": "PartitionedCall/transpose_149/perm",
        "op": "Const",
        "attr": {
          "value": { "tensor": { "dtype": "DT_INT32", "tensorShape": { "dim": [{ "size": "4" }] } } },
          "dtype": { "type": "DT_INT32" }
        }
      },
      {
        "name": "PartitionedCall/split_46",
        "op": "Const",
        "attr": {
          "value": {
            "tensor": {
              "dtype": "DT_FLOAT",
              "tensorShape": { "dim": [{ "size": "3" }, { "size": "3" }, { "size": "96" }, { "size": "96" }] }
            }
          },
          "dtype": { "type": "DT_FLOAT" }
        }
      },
      {
        "name": "unknown_101",
        "op": "Const",
        "attr": {
          "dtype": { "type": "DT_FLOAT" },
          "value": { "tensor": { "dtype": "DT_FLOAT", "tensorShape": { "dim": [{ "size": "96" }] } } }
        }
      },
      {
        "name": "PartitionedCall/transpose_150/perm",
        "op": "Const",
        "attr": {
          "dtype": { "type": "DT_INT32" },
          "value": { "tensor": { "dtype": "DT_INT32", "tensorShape": { "dim": [{ "size": "4" }] } } }
        }
      },
      {
        "name": "PartitionedCall/Const_60",
        "op": "Const",
        "attr": {
          "dtype": { "type": "DT_INT32" },
          "value": { "tensor": { "dtype": "DT_INT32", "tensorShape": { "dim": [{ "size": "4" }, { "size": "2" }] } } }
        }
      },
      {
        "name": "PartitionedCall/transpose_152/perm",
        "op": "Const",
        "attr": {
          "value": { "tensor": { "dtype": "DT_INT32", "tensorShape": { "dim": [{ "size": "4" }] } } },
          "dtype": { "type": "DT_INT32" }
        }
      },
      {
        "name": "PartitionedCall/split_47",
        "op": "Const",
        "attr": {
          "dtype": { "type": "DT_FLOAT" },
          "value": {
            "tensor": {
              "dtype": "DT_FLOAT",
              "tensorShape": { "dim": [{ "size": "3" }, { "size": "3" }, { "size": "96" }, { "size": "96" }] }
            }
          }
        }
      },
      {
        "name": "unknown_103",
        "op": "Const",
        "attr": {
          "dtype": { "type": "DT_FLOAT" },
          "value": { "tensor": { "dtype": "DT_FLOAT", "tensorShape": { "dim": [{ "size": "96" }] } } }
        }
      },
      {
        "name": "PartitionedCall/transpose_153/perm",
        "op": "Const",
        "attr": {
          "dtype": { "type": "DT_INT32" },
          "value": { "tensor": { "dtype": "DT_INT32", "tensorShape": { "dim": [{ "size": "4" }] } } }
        }
      },
      {
        "name": "PartitionedCall/Const_61",
        "op": "Const",
        "attr": {
          "value": { "tensor": { "dtype": "DT_INT32", "tensorShape": { "dim": [{ "size": "4" }, { "size": "2" }] } } },
          "dtype": { "type": "DT_INT32" }
        }
      },
      {
        "name": "PartitionedCall/transpose_155/perm",
        "op": "Const",
        "attr": {
          "dtype": { "type": "DT_INT32" },
          "value": { "tensor": { "dtype": "DT_INT32", "tensorShape": { "dim": [{ "size": "4" }] } } }
        }
      },
      {
        "name": "PartitionedCall/split_48",
        "op": "Const",
        "attr": {
          "value": {
            "tensor": {
              "dtype": "DT_FLOAT",
              "tensorShape": { "dim": [{ "size": "3" }, { "size": "3" }, { "size": "96" }, { "size": "96" }] }
            }
          },
          "dtype": { "type": "DT_FLOAT" }
        }
      },
      {
        "name": "unknown_105",
        "op": "Const",
        "attr": {
          "value": { "tensor": { "dtype": "DT_FLOAT", "tensorShape": { "dim": [{ "size": "96" }] } } },
          "dtype": { "type": "DT_FLOAT" }
        }
      },
      {
        "name": "PartitionedCall/transpose_156/perm",
        "op": "Const",
        "attr": {
          "value": { "tensor": { "dtype": "DT_INT32", "tensorShape": { "dim": [{ "size": "4" }] } } },
          "dtype": { "type": "DT_INT32" }
        }
      },
      {
        "name": "PartitionedCall/Const_62",
        "op": "Const",
        "attr": {
          "dtype": { "type": "DT_INT32" },
          "value": { "tensor": { "dtype": "DT_INT32", "tensorShape": { "dim": [{ "size": "4" }, { "size": "2" }] } } }
        }
      },
      {
        "name": "PartitionedCall/transpose_158/perm",
        "op": "Const",
        "attr": {
          "dtype": { "type": "DT_INT32" },
          "value": { "tensor": { "dtype": "DT_INT32", "tensorShape": { "dim": [{ "size": "4" }] } } }
        }
      },
      {
        "name": "PartitionedCall/split_49",
        "op": "Const",
        "attr": {
          "dtype": { "type": "DT_FLOAT" },
          "value": {
            "tensor": {
              "dtype": "DT_FLOAT",
              "tensorShape": { "dim": [{ "size": "3" }, { "size": "3" }, { "size": "96" }, { "size": "96" }] }
            }
          }
        }
      },
      {
        "name": "unknown_107",
        "op": "Const",
        "attr": {
          "dtype": { "type": "DT_FLOAT" },
          "value": { "tensor": { "dtype": "DT_FLOAT", "tensorShape": { "dim": [{ "size": "96" }] } } }
        }
      },
      {
        "name": "PartitionedCall/transpose_159/perm",
        "op": "Const",
        "attr": {
          "dtype": { "type": "DT_INT32" },
          "value": { "tensor": { "dtype": "DT_INT32", "tensorShape": { "dim": [{ "size": "4" }] } } }
        }
      },
      {
        "name": "PartitionedCall/onnx_tf_prefix_/model.15/Concat/axis",
        "op": "Const",
        "attr": { "dtype": { "type": "DT_INT32" }, "value": { "tensor": { "dtype": "DT_INT32", "tensorShape": {} } } }
      },
      {
        "name": "PartitionedCall/transpose_161/perm",
        "op": "Const",
        "attr": {
          "value": { "tensor": { "dtype": "DT_INT32", "tensorShape": { "dim": [{ "size": "4" }] } } },
          "dtype": { "type": "DT_INT32" }
        }
      },
      {
        "name": "PartitionedCall/split_50",
        "op": "Const",
        "attr": {
          "value": {
            "tensor": {
              "dtype": "DT_FLOAT",
              "tensorShape": { "dim": [{ "size": "1" }, { "size": "1" }, { "size": "384" }, { "size": "192" }] }
            }
          },
          "dtype": { "type": "DT_FLOAT" }
        }
      },
      {
        "name": "unknown_109",
        "op": "Const",
        "attr": {
          "value": { "tensor": { "dtype": "DT_FLOAT", "tensorShape": { "dim": [{ "size": "192" }] } } },
          "dtype": { "type": "DT_FLOAT" }
        }
      },
      {
        "name": "PartitionedCall/transpose_162/perm",
        "op": "Const",
        "attr": {
          "dtype": { "type": "DT_INT32" },
          "value": { "tensor": { "dtype": "DT_INT32", "tensorShape": { "dim": [{ "size": "4" }] } } }
        }
      },
      {
        "name": "PartitionedCall/Const_63",
        "op": "Const",
        "attr": {
          "dtype": { "type": "DT_INT32" },
          "value": { "tensor": { "dtype": "DT_INT32", "tensorShape": { "dim": [{ "size": "4" }, { "size": "2" }] } } }
        }
      },
      {
        "name": "PartitionedCall/transpose_164/perm",
        "op": "Const",
        "attr": {
          "value": { "tensor": { "dtype": "DT_INT32", "tensorShape": { "dim": [{ "size": "4" }] } } },
          "dtype": { "type": "DT_INT32" }
        }
      },
      {
        "name": "PartitionedCall/split_51",
        "op": "Const",
        "attr": {
          "value": {
            "tensor": {
              "dtype": "DT_FLOAT",
              "tensorShape": { "dim": [{ "size": "3" }, { "size": "3" }, { "size": "192" }, { "size": "192" }] }
            }
          },
          "dtype": { "type": "DT_FLOAT" }
        }
      },
      {
        "name": "unknown_111",
        "op": "Const",
        "attr": {
          "value": { "tensor": { "dtype": "DT_FLOAT", "tensorShape": { "dim": [{ "size": "192" }] } } },
          "dtype": { "type": "DT_FLOAT" }
        }
      },
      {
        "name": "PartitionedCall/transpose_165/perm",
        "op": "Const",
        "attr": {
          "dtype": { "type": "DT_INT32" },
          "value": { "tensor": { "dtype": "DT_INT32", "tensorShape": { "dim": [{ "size": "4" }] } } }
        }
      },
      {
        "name": "PartitionedCall/SelectV2_33",
        "op": "Const",
        "attr": {
          "value": { "tensor": { "dtype": "DT_INT64", "tensorShape": { "dim": [{ "size": "1" }] } } },
          "dtype": { "type": "DT_INT64" }
        }
      },
      {
        "name": "PartitionedCall/zeros_8",
        "op": "Const",
        "attr": { "value": { "tensor": { "dtype": "DT_INT64", "tensorShape": {} } }, "dtype": { "type": "DT_INT64" } }
      },
      {
        "name": "PartitionedCall/Const_47",
        "op": "Const",
        "attr": { "dtype": { "type": "DT_INT64" }, "value": { "tensor": { "dtype": "DT_INT64", "tensorShape": {} } } }
      },
      {
        "name": "PartitionedCall/Shape_8",
        "op": "Const",
        "attr": {
          "value": { "tensor": { "dtype": "DT_INT64", "tensorShape": { "dim": [{ "size": "4" }] } } },
          "dtype": { "type": "DT_INT64" }
        }
      },
      {
        "name": "PartitionedCall/ExpandDims_8",
        "op": "Const",
        "attr": {
          "value": { "tensor": { "dtype": "DT_INT64", "tensorShape": { "dim": [{ "size": "1" }, { "size": "1" }] } } },
          "dtype": { "type": "DT_INT64" }
        }
      },
      {
        "name": "PartitionedCall/Cast_19",
        "op": "Const",
        "attr": {
          "dtype": { "type": "DT_INT64" },
          "value": { "tensor": { "dtype": "DT_INT64", "tensorShape": { "dim": [{ "size": "1" }] } } }
        }
      },
      {
        "name": "PartitionedCall/SelectV2_34",
        "op": "Const",
        "attr": {
          "value": { "tensor": { "dtype": "DT_INT64", "tensorShape": { "dim": [{ "size": "1" }] } } },
          "dtype": { "type": "DT_INT64" }
        }
      },
      {
        "name": "PartitionedCall/Const_46",
        "op": "Const",
        "attr": { "value": { "tensor": { "dtype": "DT_INT64", "tensorShape": {} } }, "dtype": { "type": "DT_INT64" } }
      },
      {
        "name": "PartitionedCall/ones_8",
        "op": "Const",
        "attr": {
          "dtype": { "type": "DT_INT64" },
          "value": { "tensor": { "dtype": "DT_INT64", "tensorShape": { "dim": [{ "size": "4" }] } } }
        }
      },
      {
        "name": "PartitionedCall/transpose_123/perm",
        "op": "Const",
        "attr": {
          "value": { "tensor": { "dtype": "DT_INT32", "tensorShape": { "dim": [{ "size": "4" }] } } },
          "dtype": { "type": "DT_INT32" }
        }
      },
      {
        "name": "PartitionedCall/Cast_17",
        "op": "Const",
        "attr": {
          "dtype": { "type": "DT_INT32" },
          "value": { "tensor": { "dtype": "DT_INT32", "tensorShape": { "dim": [{ "size": "2" }] } } }
        }
      },
      {
        "name": "PartitionedCall/transpose_124/perm",
        "op": "Const",
        "attr": {
          "value": { "tensor": { "dtype": "DT_INT32", "tensorShape": { "dim": [{ "size": "4" }] } } },
          "dtype": { "type": "DT_INT32" }
        }
      },
      {
        "name": "PartitionedCall/onnx_tf_prefix_/model.11/Concat/axis",
        "op": "Const",
        "attr": { "value": { "tensor": { "dtype": "DT_INT32", "tensorShape": {} } }, "dtype": { "type": "DT_INT32" } }
      },
      {
        "name": "PartitionedCall/transpose_126/perm",
        "op": "Const",
        "attr": {
          "dtype": { "type": "DT_INT32" },
          "value": { "tensor": { "dtype": "DT_INT32", "tensorShape": { "dim": [{ "size": "4" }] } } }
        }
      },
      {
        "name": "PartitionedCall/split_39",
        "op": "Const",
        "attr": {
          "value": {
            "tensor": {
              "dtype": "DT_FLOAT",
              "tensorShape": { "dim": [{ "size": "1" }, { "size": "1" }, { "size": "960" }, { "size": "384" }] }
            }
          },
          "dtype": { "type": "DT_FLOAT" }
        }
      },
      {
        "name": "unknown_87",
        "op": "Const",
        "attr": {
          "dtype": { "type": "DT_FLOAT" },
          "value": { "tensor": { "dtype": "DT_FLOAT", "tensorShape": { "dim": [{ "size": "384" }] } } }
        }
      },
      {
        "name": "PartitionedCall/transpose_127/perm",
        "op": "Const",
        "attr": {
          "dtype": { "type": "DT_INT32" },
          "value": { "tensor": { "dtype": "DT_INT32", "tensorShape": { "dim": [{ "size": "4" }] } } }
        }
      },
      {
        "name": "PartitionedCall/SelectV2_37",
        "op": "Const",
        "attr": {
          "dtype": { "type": "DT_INT64" },
          "value": { "tensor": { "dtype": "DT_INT64", "tensorShape": { "dim": [{ "size": "1" }] } } }
        }
      },
      {
        "name": "PartitionedCall/zeros_9",
        "op": "Const",
        "attr": { "dtype": { "type": "DT_INT64" }, "value": { "tensor": { "dtype": "DT_INT64", "tensorShape": {} } } }
      },
      {
        "name": "PartitionedCall/Const_49",
        "op": "Const",
        "attr": { "dtype": { "type": "DT_INT64" }, "value": { "tensor": { "dtype": "DT_INT64", "tensorShape": {} } } }
      },
      {
        "name": "PartitionedCall/Shape_9",
        "op": "Const",
        "attr": {
          "dtype": { "type": "DT_INT64" },
          "value": { "tensor": { "dtype": "DT_INT64", "tensorShape": { "dim": [{ "size": "4" }] } } }
        }
      },
      {
        "name": "PartitionedCall/ExpandDims_9",
        "op": "Const",
        "attr": {
          "dtype": { "type": "DT_INT64" },
          "value": { "tensor": { "dtype": "DT_INT64", "tensorShape": { "dim": [{ "size": "1" }, { "size": "1" }] } } }
        }
      },
      {
        "name": "PartitionedCall/Cast_21",
        "op": "Const",
        "attr": {
          "dtype": { "type": "DT_INT64" },
          "value": { "tensor": { "dtype": "DT_INT64", "tensorShape": { "dim": [{ "size": "1" }] } } }
        }
      },
      {
        "name": "PartitionedCall/SelectV2_38",
        "op": "Const",
        "attr": {
          "dtype": { "type": "DT_INT64" },
          "value": { "tensor": { "dtype": "DT_INT64", "tensorShape": { "dim": [{ "size": "1" }] } } }
        }
      },
      {
        "name": "PartitionedCall/Const_48",
        "op": "Const",
        "attr": { "value": { "tensor": { "dtype": "DT_INT64", "tensorShape": {} } }, "dtype": { "type": "DT_INT64" } }
      },
      {
        "name": "PartitionedCall/ones_9",
        "op": "Const",
        "attr": {
          "value": { "tensor": { "dtype": "DT_INT64", "tensorShape": { "dim": [{ "size": "4" }] } } },
          "dtype": { "type": "DT_INT64" }
        }
      },
      {
        "name": "PartitionedCall/Const_50",
        "op": "Const",
        "attr": {
          "dtype": { "type": "DT_INT32" },
          "value": { "tensor": { "dtype": "DT_INT32", "tensorShape": { "dim": [{ "size": "4" }, { "size": "2" }] } } }
        }
      },
      {
        "name": "PartitionedCall/transpose_129/perm",
        "op": "Const",
        "attr": {
          "dtype": { "type": "DT_INT32" },
          "value": { "tensor": { "dtype": "DT_INT32", "tensorShape": { "dim": [{ "size": "4" }] } } }
        }
      },
      {
        "name": "PartitionedCall/split_40",
        "op": "Const",
        "attr": {
          "value": {
            "tensor": {
              "dtype": "DT_FLOAT",
              "tensorShape": { "dim": [{ "size": "3" }, { "size": "3" }, { "size": "192" }, { "size": "192" }] }
            }
          },
          "dtype": { "type": "DT_FLOAT" }
        }
      },
      {
        "name": "unknown_89",
        "op": "Const",
        "attr": {
          "dtype": { "type": "DT_FLOAT" },
          "value": { "tensor": { "dtype": "DT_FLOAT", "tensorShape": { "dim": [{ "size": "192" }] } } }
        }
      },
      {
        "name": "PartitionedCall/transpose_130/perm",
        "op": "Const",
        "attr": {
          "dtype": { "type": "DT_INT32" },
          "value": { "tensor": { "dtype": "DT_INT32", "tensorShape": { "dim": [{ "size": "4" }] } } }
        }
      },
      {
        "name": "PartitionedCall/Const_51",
        "op": "Const",
        "attr": {
          "value": { "tensor": { "dtype": "DT_INT32", "tensorShape": { "dim": [{ "size": "4" }, { "size": "2" }] } } },
          "dtype": { "type": "DT_INT32" }
        }
      },
      {
        "name": "PartitionedCall/transpose_132/perm",
        "op": "Const",
        "attr": {
          "value": { "tensor": { "dtype": "DT_INT32", "tensorShape": { "dim": [{ "size": "4" }] } } },
          "dtype": { "type": "DT_INT32" }
        }
      },
      {
        "name": "PartitionedCall/split_41",
        "op": "Const",
        "attr": {
          "value": {
            "tensor": {
              "dtype": "DT_FLOAT",
              "tensorShape": { "dim": [{ "size": "3" }, { "size": "3" }, { "size": "192" }, { "size": "192" }] }
            }
          },
          "dtype": { "type": "DT_FLOAT" }
        }
      },
      {
        "name": "unknown_91",
        "op": "Const",
        "attr": {
          "dtype": { "type": "DT_FLOAT" },
          "value": { "tensor": { "dtype": "DT_FLOAT", "tensorShape": { "dim": [{ "size": "192" }] } } }
        }
      },
      {
        "name": "PartitionedCall/transpose_133/perm",
        "op": "Const",
        "attr": {
          "value": { "tensor": { "dtype": "DT_INT32", "tensorShape": { "dim": [{ "size": "4" }] } } },
          "dtype": { "type": "DT_INT32" }
        }
      },
      {
        "name": "PartitionedCall/Const_52",
        "op": "Const",
        "attr": {
          "dtype": { "type": "DT_INT32" },
          "value": { "tensor": { "dtype": "DT_INT32", "tensorShape": { "dim": [{ "size": "4" }, { "size": "2" }] } } }
        }
      },
      {
        "name": "PartitionedCall/transpose_135/perm",
        "op": "Const",
        "attr": {
          "value": { "tensor": { "dtype": "DT_INT32", "tensorShape": { "dim": [{ "size": "4" }] } } },
          "dtype": { "type": "DT_INT32" }
        }
      },
      {
        "name": "PartitionedCall/split_42",
        "op": "Const",
        "attr": {
          "value": {
            "tensor": {
              "dtype": "DT_FLOAT",
              "tensorShape": { "dim": [{ "size": "3" }, { "size": "3" }, { "size": "192" }, { "size": "192" }] }
            }
          },
          "dtype": { "type": "DT_FLOAT" }
        }
      },
      {
        "name": "unknown_93",
        "op": "Const",
        "attr": {
          "value": { "tensor": { "dtype": "DT_FLOAT", "tensorShape": { "dim": [{ "size": "192" }] } } },
          "dtype": { "type": "DT_FLOAT" }
        }
      },
      {
        "name": "PartitionedCall/transpose_136/perm",
        "op": "Const",
        "attr": {
          "value": { "tensor": { "dtype": "DT_INT32", "tensorShape": { "dim": [{ "size": "4" }] } } },
          "dtype": { "type": "DT_INT32" }
        }
      },
      {
        "name": "PartitionedCall/Const_53",
        "op": "Const",
        "attr": {
          "value": { "tensor": { "dtype": "DT_INT32", "tensorShape": { "dim": [{ "size": "4" }, { "size": "2" }] } } },
          "dtype": { "type": "DT_INT32" }
        }
      },
      {
        "name": "PartitionedCall/transpose_138/perm",
        "op": "Const",
        "attr": {
          "value": { "tensor": { "dtype": "DT_INT32", "tensorShape": { "dim": [{ "size": "4" }] } } },
          "dtype": { "type": "DT_INT32" }
        }
      },
      {
        "name": "PartitionedCall/split_43",
        "op": "Const",
        "attr": {
          "value": {
            "tensor": {
              "dtype": "DT_FLOAT",
              "tensorShape": { "dim": [{ "size": "3" }, { "size": "3" }, { "size": "192" }, { "size": "192" }] }
            }
          },
          "dtype": { "type": "DT_FLOAT" }
        }
      },
      {
        "name": "unknown_95",
        "op": "Const",
        "attr": {
          "value": { "tensor": { "dtype": "DT_FLOAT", "tensorShape": { "dim": [{ "size": "192" }] } } },
          "dtype": { "type": "DT_FLOAT" }
        }
      },
      {
        "name": "PartitionedCall/transpose_139/perm",
        "op": "Const",
        "attr": {
          "value": { "tensor": { "dtype": "DT_INT32", "tensorShape": { "dim": [{ "size": "4" }] } } },
          "dtype": { "type": "DT_INT32" }
        }
      },
      {
        "name": "PartitionedCall/onnx_tf_prefix_/model.12/Concat/axis",
        "op": "Const",
        "attr": { "dtype": { "type": "DT_INT32" }, "value": { "tensor": { "dtype": "DT_INT32", "tensorShape": {} } } }
      },
      {
        "name": "PartitionedCall/transpose_141/perm",
        "op": "Const",
        "attr": {
          "dtype": { "type": "DT_INT32" },
          "value": { "tensor": { "dtype": "DT_INT32", "tensorShape": { "dim": [{ "size": "4" }] } } }
        }
      },
      {
        "name": "PartitionedCall/split_44",
        "op": "Const",
        "attr": {
          "dtype": { "type": "DT_FLOAT" },
          "value": {
            "tensor": {
              "dtype": "DT_FLOAT",
              "tensorShape": { "dim": [{ "size": "1" }, { "size": "1" }, { "size": "768" }, { "size": "384" }] }
            }
          }
        }
      },
      {
        "name": "unknown_97",
        "op": "Const",
        "attr": {
          "value": { "tensor": { "dtype": "DT_FLOAT", "tensorShape": { "dim": [{ "size": "384" }] } } },
          "dtype": { "type": "DT_FLOAT" }
        }
      },
      {
        "name": "PartitionedCall/transpose_142/perm",
        "op": "Const",
        "attr": {
          "value": { "tensor": { "dtype": "DT_INT32", "tensorShape": { "dim": [{ "size": "4" }] } } },
          "dtype": { "type": "DT_INT32" }
        }
      },
      {
        "name": "PartitionedCall/onnx_tf_prefix_/model.17/Concat/axis",
        "op": "Const",
        "attr": { "value": { "tensor": { "dtype": "DT_INT32", "tensorShape": {} } }, "dtype": { "type": "DT_INT32" } }
      },
      {
        "name": "PartitionedCall/transpose_179/perm",
        "op": "Const",
        "attr": {
          "value": { "tensor": { "dtype": "DT_INT32", "tensorShape": { "dim": [{ "size": "4" }] } } },
          "dtype": { "type": "DT_INT32" }
        }
      },
      {
        "name": "PartitionedCall/split_56",
        "op": "Const",
        "attr": {
          "value": {
            "tensor": {
              "dtype": "DT_FLOAT",
              "tensorShape": { "dim": [{ "size": "1" }, { "size": "1" }, { "size": "576" }, { "size": "384" }] }
            }
          },
          "dtype": { "type": "DT_FLOAT" }
        }
      },
      {
        "name": "unknown_121",
        "op": "Const",
        "attr": {
          "dtype": { "type": "DT_FLOAT" },
          "value": { "tensor": { "dtype": "DT_FLOAT", "tensorShape": { "dim": [{ "size": "384" }] } } }
        }
      },
      {
        "name": "PartitionedCall/transpose_180/perm",
        "op": "Const",
        "attr": {
          "dtype": { "type": "DT_INT32" },
          "value": { "tensor": { "dtype": "DT_INT32", "tensorShape": { "dim": [{ "size": "4" }] } } }
        }
      },
      {
        "name": "PartitionedCall/SelectV2_53",
        "op": "Const",
        "attr": {
          "value": { "tensor": { "dtype": "DT_INT64", "tensorShape": { "dim": [{ "size": "1" }] } } },
          "dtype": { "type": "DT_INT64" }
        }
      },
      {
        "name": "PartitionedCall/zeros_13",
        "op": "Const",
        "attr": { "value": { "tensor": { "dtype": "DT_INT64", "tensorShape": {} } }, "dtype": { "type": "DT_INT64" } }
      },
      {
        "name": "PartitionedCall/Const_71",
        "op": "Const",
        "attr": { "dtype": { "type": "DT_INT64" }, "value": { "tensor": { "dtype": "DT_INT64", "tensorShape": {} } } }
      },
      {
        "name": "PartitionedCall/Shape_13",
        "op": "Const",
        "attr": {
          "dtype": { "type": "DT_INT64" },
          "value": { "tensor": { "dtype": "DT_INT64", "tensorShape": { "dim": [{ "size": "4" }] } } }
        }
      },
      {
        "name": "PartitionedCall/ExpandDims_13",
        "op": "Const",
        "attr": {
          "dtype": { "type": "DT_INT64" },
          "value": { "tensor": { "dtype": "DT_INT64", "tensorShape": { "dim": [{ "size": "1" }, { "size": "1" }] } } }
        }
      },
      {
        "name": "PartitionedCall/Cast_31",
        "op": "Const",
        "attr": {
          "value": { "tensor": { "dtype": "DT_INT64", "tensorShape": { "dim": [{ "size": "1" }] } } },
          "dtype": { "type": "DT_INT64" }
        }
      },
      {
        "name": "PartitionedCall/SelectV2_54",
        "op": "Const",
        "attr": {
          "value": { "tensor": { "dtype": "DT_INT64", "tensorShape": { "dim": [{ "size": "1" }] } } },
          "dtype": { "type": "DT_INT64" }
        }
      },
      {
        "name": "PartitionedCall/Const_70",
        "op": "Const",
        "attr": { "dtype": { "type": "DT_INT64" }, "value": { "tensor": { "dtype": "DT_INT64", "tensorShape": {} } } }
      },
      {
        "name": "PartitionedCall/ones_13",
        "op": "Const",
        "attr": {
          "dtype": { "type": "DT_INT64" },
          "value": { "tensor": { "dtype": "DT_INT64", "tensorShape": { "dim": [{ "size": "4" }] } } }
        }
      },
      {
        "name": "PartitionedCall/Const_72",
        "op": "Const",
        "attr": {
          "value": { "tensor": { "dtype": "DT_INT32", "tensorShape": { "dim": [{ "size": "4" }, { "size": "2" }] } } },
          "dtype": { "type": "DT_INT32" }
        }
      },
      {
        "name": "PartitionedCall/transpose_188/perm",
        "op": "Const",
        "attr": {
          "dtype": { "type": "DT_INT32" },
          "value": { "tensor": { "dtype": "DT_INT32", "tensorShape": { "dim": [{ "size": "4" }] } } }
        }
      },
      {
        "name": "PartitionedCall/split_59",
        "op": "Const",
        "attr": {
          "value": {
            "tensor": {
              "dtype": "DT_FLOAT",
              "tensorShape": { "dim": [{ "size": "3" }, { "size": "3" }, { "size": "192" }, { "size": "192" }] }
            }
          },
          "dtype": { "type": "DT_FLOAT" }
        }
      },
      {
        "name": "unknown_127",
        "op": "Const",
        "attr": {
          "dtype": { "type": "DT_FLOAT" },
          "value": { "tensor": { "dtype": "DT_FLOAT", "tensorShape": { "dim": [{ "size": "192" }] } } }
        }
      },
      {
        "name": "PartitionedCall/transpose_189/perm",
        "op": "Const",
        "attr": {
          "dtype": { "type": "DT_INT32" },
          "value": { "tensor": { "dtype": "DT_INT32", "tensorShape": { "dim": [{ "size": "4" }] } } }
        }
      },
      {
        "name": "PartitionedCall/Const_74",
        "op": "Const",
        "attr": {
          "value": { "tensor": { "dtype": "DT_INT32", "tensorShape": { "dim": [{ "size": "4" }, { "size": "2" }] } } },
          "dtype": { "type": "DT_INT32" }
        }
      },
      {
        "name": "PartitionedCall/transpose_191/perm",
        "op": "Const",
        "attr": {
          "value": { "tensor": { "dtype": "DT_INT32", "tensorShape": { "dim": [{ "size": "4" }] } } },
          "dtype": { "type": "DT_INT32" }
        }
      },
      {
        "name": "PartitionedCall/split_60",
        "op": "Const",
        "attr": {
          "value": {
            "tensor": {
              "dtype": "DT_FLOAT",
              "tensorShape": { "dim": [{ "size": "3" }, { "size": "3" }, { "size": "192" }, { "size": "192" }] }
            }
          },
          "dtype": { "type": "DT_FLOAT" }
        }
      },
      {
        "name": "unknown_130",
        "op": "Const",
        "attr": {
          "value": { "tensor": { "dtype": "DT_FLOAT", "tensorShape": { "dim": [{ "size": "192" }] } } },
          "dtype": { "type": "DT_FLOAT" }
        }
      },
      {
        "name": "PartitionedCall/transpose_192/perm",
        "op": "Const",
        "attr": {
          "dtype": { "type": "DT_INT32" },
          "value": { "tensor": { "dtype": "DT_INT32", "tensorShape": { "dim": [{ "size": "4" }] } } }
        }
      },
      {
        "name": "PartitionedCall/Const_75",
        "op": "Const",
        "attr": {
          "value": { "tensor": { "dtype": "DT_INT32", "tensorShape": { "dim": [{ "size": "4" }, { "size": "2" }] } } },
          "dtype": { "type": "DT_INT32" }
        }
      },
      {
        "name": "PartitionedCall/transpose_194/perm",
        "op": "Const",
        "attr": {
          "dtype": { "type": "DT_INT32" },
          "value": { "tensor": { "dtype": "DT_INT32", "tensorShape": { "dim": [{ "size": "4" }] } } }
        }
      },
      {
        "name": "PartitionedCall/split_61",
        "op": "Const",
        "attr": {
          "dtype": { "type": "DT_FLOAT" },
          "value": {
            "tensor": {
              "dtype": "DT_FLOAT",
              "tensorShape": { "dim": [{ "size": "3" }, { "size": "3" }, { "size": "192" }, { "size": "192" }] }
            }
          }
        }
      },
      {
        "name": "unknown_132",
        "op": "Const",
        "attr": {
          "dtype": { "type": "DT_FLOAT" },
          "value": { "tensor": { "dtype": "DT_FLOAT", "tensorShape": { "dim": [{ "size": "192" }] } } }
        }
      },
      {
        "name": "PartitionedCall/transpose_195/perm",
        "op": "Const",
        "attr": {
          "value": { "tensor": { "dtype": "DT_INT32", "tensorShape": { "dim": [{ "size": "4" }] } } },
          "dtype": { "type": "DT_INT32" }
        }
      },
      {
        "name": "PartitionedCall/Const_76",
        "op": "Const",
        "attr": {
          "dtype": { "type": "DT_INT32" },
          "value": { "tensor": { "dtype": "DT_INT32", "tensorShape": { "dim": [{ "size": "4" }, { "size": "2" }] } } }
        }
      },
      {
        "name": "PartitionedCall/transpose_197/perm",
        "op": "Const",
        "attr": {
          "value": { "tensor": { "dtype": "DT_INT32", "tensorShape": { "dim": [{ "size": "4" }] } } },
          "dtype": { "type": "DT_INT32" }
        }
      },
      {
        "name": "PartitionedCall/split_62",
        "op": "Const",
        "attr": {
          "dtype": { "type": "DT_FLOAT" },
          "value": {
            "tensor": {
              "dtype": "DT_FLOAT",
              "tensorShape": { "dim": [{ "size": "3" }, { "size": "3" }, { "size": "192" }, { "size": "192" }] }
            }
          }
        }
      },
      {
        "name": "unknown_134",
        "op": "Const",
        "attr": {
          "dtype": { "type": "DT_FLOAT" },
          "value": { "tensor": { "dtype": "DT_FLOAT", "tensorShape": { "dim": [{ "size": "192" }] } } }
        }
      },
      {
        "name": "PartitionedCall/transpose_198/perm",
        "op": "Const",
        "attr": {
          "dtype": { "type": "DT_INT32" },
          "value": { "tensor": { "dtype": "DT_INT32", "tensorShape": { "dim": [{ "size": "4" }] } } }
        }
      },
      {
        "name": "PartitionedCall/onnx_tf_prefix_/model.18/Concat/axis",
        "op": "Const",
        "attr": { "value": { "tensor": { "dtype": "DT_INT32", "tensorShape": {} } }, "dtype": { "type": "DT_INT32" } }
      },
      {
        "name": "PartitionedCall/transpose_200/perm",
        "op": "Const",
        "attr": {
          "value": { "tensor": { "dtype": "DT_INT32", "tensorShape": { "dim": [{ "size": "4" }] } } },
          "dtype": { "type": "DT_INT32" }
        }
      },
      {
        "name": "PartitionedCall/split_63",
        "op": "Const",
        "attr": {
          "value": {
            "tensor": {
              "dtype": "DT_FLOAT",
              "tensorShape": { "dim": [{ "size": "1" }, { "size": "1" }, { "size": "768" }, { "size": "384" }] }
            }
          },
          "dtype": { "type": "DT_FLOAT" }
        }
      },
      {
        "name": "unknown_136",
        "op": "Const",
        "attr": {
          "dtype": { "type": "DT_FLOAT" },
          "value": { "tensor": { "dtype": "DT_FLOAT", "tensorShape": { "dim": [{ "size": "384" }] } } }
        }
      },
      {
        "name": "PartitionedCall/transpose_201/perm",
        "op": "Const",
        "attr": {
          "dtype": { "type": "DT_INT32" },
          "value": { "tensor": { "dtype": "DT_INT32", "tensorShape": { "dim": [{ "size": "4" }] } } }
        }
      },
      {
        "name": "PartitionedCall/Const_77",
        "op": "Const",
        "attr": {
          "value": { "tensor": { "dtype": "DT_INT32", "tensorShape": { "dim": [{ "size": "4" }, { "size": "2" }] } } },
          "dtype": { "type": "DT_INT32" }
        }
      },
      {
        "name": "PartitionedCall/transpose_203/perm",
        "op": "Const",
        "attr": {
          "value": { "tensor": { "dtype": "DT_INT32", "tensorShape": { "dim": [{ "size": "4" }] } } },
          "dtype": { "type": "DT_INT32" }
        }
      },
      {
        "name": "PartitionedCall/split_64",
        "op": "Const",
        "attr": {
          "dtype": { "type": "DT_FLOAT" },
          "value": {
            "tensor": {
              "dtype": "DT_FLOAT",
              "tensorShape": { "dim": [{ "size": "3" }, { "size": "3" }, { "size": "384" }, { "size": "384" }] }
            }
          }
        }
      },
      {
        "name": "unknown_138",
        "op": "Const",
        "attr": {
          "dtype": { "type": "DT_FLOAT" },
          "value": { "tensor": { "dtype": "DT_FLOAT", "tensorShape": { "dim": [{ "size": "384" }] } } }
        }
      },
      {
        "name": "PartitionedCall/transpose_204/perm",
        "op": "Const",
        "attr": {
          "dtype": { "type": "DT_INT32" },
          "value": { "tensor": { "dtype": "DT_INT32", "tensorShape": { "dim": [{ "size": "4" }] } } }
        }
      },
      {
        "name": "PartitionedCall/transpose_115/perm",
        "op": "Const",
        "attr": {
          "dtype": { "type": "DT_INT32" },
          "value": { "tensor": { "dtype": "DT_INT32", "tensorShape": { "dim": [{ "size": "4" }] } } }
        }
      },
      {
        "name": "PartitionedCall/transpose_117/perm",
        "op": "Const",
        "attr": {
          "dtype": { "type": "DT_INT32" },
          "value": { "tensor": { "dtype": "DT_INT32", "tensorShape": { "dim": [{ "size": "4" }] } } }
        }
      },
      {
        "name": "PartitionedCall/SelectV2_25",
        "op": "Const",
        "attr": {
          "value": { "tensor": { "dtype": "DT_INT64", "tensorShape": { "dim": [{ "size": "1" }] } } },
          "dtype": { "type": "DT_INT64" }
        }
      },
      {
        "name": "PartitionedCall/zeros_6",
        "op": "Const",
        "attr": { "value": { "tensor": { "dtype": "DT_INT64", "tensorShape": {} } }, "dtype": { "type": "DT_INT64" } }
      },
      {
        "name": "PartitionedCall/Const_38",
        "op": "Const",
        "attr": { "dtype": { "type": "DT_INT64" }, "value": { "tensor": { "dtype": "DT_INT64", "tensorShape": {} } } }
      },
      {
        "name": "PartitionedCall/Shape_6",
        "op": "Const",
        "attr": {
          "dtype": { "type": "DT_INT64" },
          "value": { "tensor": { "dtype": "DT_INT64", "tensorShape": { "dim": [{ "size": "4" }] } } }
        }
      },
      {
        "name": "PartitionedCall/ExpandDims_6",
        "op": "Const",
        "attr": {
          "dtype": { "type": "DT_INT64" },
          "value": { "tensor": { "dtype": "DT_INT64", "tensorShape": { "dim": [{ "size": "1" }, { "size": "1" }] } } }
        }
      },
      {
        "name": "PartitionedCall/Cast_13",
        "op": "Const",
        "attr": {
          "value": { "tensor": { "dtype": "DT_INT64", "tensorShape": { "dim": [{ "size": "1" }] } } },
          "dtype": { "type": "DT_INT64" }
        }
      },
      {
        "name": "PartitionedCall/SelectV2_26",
        "op": "Const",
        "attr": {
          "dtype": { "type": "DT_INT64" },
          "value": { "tensor": { "dtype": "DT_INT64", "tensorShape": { "dim": [{ "size": "1" }] } } }
        }
      },
      {
        "name": "PartitionedCall/Const_37",
        "op": "Const",
        "attr": { "dtype": { "type": "DT_INT64" }, "value": { "tensor": { "dtype": "DT_INT64", "tensorShape": {} } } }
      },
      {
        "name": "PartitionedCall/ones_6",
        "op": "Const",
        "attr": {
          "dtype": { "type": "DT_INT64" },
          "value": { "tensor": { "dtype": "DT_INT64", "tensorShape": { "dim": [{ "size": "4" }] } } }
        }
      },
      {
        "name": "PartitionedCall/SelectV2_17",
        "op": "Const",
        "attr": {
          "value": { "tensor": { "dtype": "DT_INT64", "tensorShape": { "dim": [{ "size": "1" }] } } },
          "dtype": { "type": "DT_INT64" }
        }
      },
      {
        "name": "PartitionedCall/zeros_4",
        "op": "Const",
        "attr": { "value": { "tensor": { "dtype": "DT_INT64", "tensorShape": {} } }, "dtype": { "type": "DT_INT64" } }
      },
      {
        "name": "PartitionedCall/Const_25",
        "op": "Const",
        "attr": { "dtype": { "type": "DT_INT64" }, "value": { "tensor": { "dtype": "DT_INT64", "tensorShape": {} } } }
      },
      {
        "name": "PartitionedCall/Shape_4",
        "op": "Const",
        "attr": {
          "value": { "tensor": { "dtype": "DT_INT64", "tensorShape": { "dim": [{ "size": "4" }] } } },
          "dtype": { "type": "DT_INT64" }
        }
      },
      {
        "name": "PartitionedCall/ExpandDims_4",
        "op": "Const",
        "attr": {
          "dtype": { "type": "DT_INT64" },
          "value": { "tensor": { "dtype": "DT_INT64", "tensorShape": { "dim": [{ "size": "1" }, { "size": "1" }] } } }
        }
      },
      {
        "name": "PartitionedCall/Cast_9",
        "op": "Const",
        "attr": {
          "value": { "tensor": { "dtype": "DT_INT64", "tensorShape": { "dim": [{ "size": "1" }] } } },
          "dtype": { "type": "DT_INT64" }
        }
      },
      {
        "name": "PartitionedCall/SelectV2_18",
        "op": "Const",
        "attr": {
          "value": { "tensor": { "dtype": "DT_INT64", "tensorShape": { "dim": [{ "size": "1" }] } } },
          "dtype": { "type": "DT_INT64" }
        }
      },
      {
        "name": "PartitionedCall/Const_24",
        "op": "Const",
        "attr": { "value": { "tensor": { "dtype": "DT_INT64", "tensorShape": {} } }, "dtype": { "type": "DT_INT64" } }
      },
      {
        "name": "PartitionedCall/ones_4",
        "op": "Const",
        "attr": {
          "dtype": { "type": "DT_INT64" },
          "value": { "tensor": { "dtype": "DT_INT64", "tensorShape": { "dim": [{ "size": "4" }] } } }
        }
      },
      {
        "name": "PartitionedCall/SelectV2_9",
        "op": "Const",
        "attr": {
          "value": { "tensor": { "dtype": "DT_INT64", "tensorShape": { "dim": [{ "size": "1" }] } } },
          "dtype": { "type": "DT_INT64" }
        }
      },
      {
        "name": "PartitionedCall/zeros_2",
        "op": "Const",
        "attr": { "value": { "tensor": { "dtype": "DT_INT64", "tensorShape": {} } }, "dtype": { "type": "DT_INT64" } }
      },
      {
        "name": "PartitionedCall/Const_12",
        "op": "Const",
        "attr": { "value": { "tensor": { "dtype": "DT_INT64", "tensorShape": {} } }, "dtype": { "type": "DT_INT64" } }
      },
      {
        "name": "PartitionedCall/Shape_2",
        "op": "Const",
        "attr": {
          "dtype": { "type": "DT_INT64" },
          "value": { "tensor": { "dtype": "DT_INT64", "tensorShape": { "dim": [{ "size": "4" }] } } }
        }
      },
      {
        "name": "PartitionedCall/ExpandDims_2",
        "op": "Const",
        "attr": {
          "value": { "tensor": { "dtype": "DT_INT64", "tensorShape": { "dim": [{ "size": "1" }, { "size": "1" }] } } },
          "dtype": { "type": "DT_INT64" }
        }
      },
      {
        "name": "PartitionedCall/Cast_5",
        "op": "Const",
        "attr": {
          "dtype": { "type": "DT_INT64" },
          "value": { "tensor": { "dtype": "DT_INT64", "tensorShape": { "dim": [{ "size": "1" }] } } }
        }
      },
      {
        "name": "PartitionedCall/SelectV2_10",
        "op": "Const",
        "attr": {
          "value": { "tensor": { "dtype": "DT_INT64", "tensorShape": { "dim": [{ "size": "1" }] } } },
          "dtype": { "type": "DT_INT64" }
        }
      },
      {
        "name": "PartitionedCall/Const_11",
        "op": "Const",
        "attr": { "value": { "tensor": { "dtype": "DT_INT64", "tensorShape": {} } }, "dtype": { "type": "DT_INT64" } }
      },
      {
        "name": "PartitionedCall/ones_2",
        "op": "Const",
        "attr": {
          "value": { "tensor": { "dtype": "DT_INT64", "tensorShape": { "dim": [{ "size": "4" }] } } },
          "dtype": { "type": "DT_INT64" }
        }
      },
      {
        "name": "PartitionedCall/SelectV2_1",
        "op": "Const",
        "attr": {
          "dtype": { "type": "DT_INT64" },
          "value": { "tensor": { "dtype": "DT_INT64", "tensorShape": { "dim": [{ "size": "1" }] } } }
        }
      },
      {
        "name": "PartitionedCall/zeros",
        "op": "Const",
        "attr": { "dtype": { "type": "DT_INT64" }, "value": { "tensor": { "dtype": "DT_INT64", "tensorShape": {} } } }
      },
      {
        "name": "PartitionedCall/Const_3",
        "op": "Const",
        "attr": { "dtype": { "type": "DT_INT64" }, "value": { "tensor": { "dtype": "DT_INT64", "tensorShape": {} } } }
      },
      {
        "name": "PartitionedCall/Shape",
        "op": "Const",
        "attr": {
          "value": { "tensor": { "dtype": "DT_INT64", "tensorShape": { "dim": [{ "size": "4" }] } } },
          "dtype": { "type": "DT_INT64" }
        }
      },
      {
        "name": "PartitionedCall/ExpandDims",
        "op": "Const",
        "attr": {
          "value": { "tensor": { "dtype": "DT_INT64", "tensorShape": { "dim": [{ "size": "1" }, { "size": "1" }] } } },
          "dtype": { "type": "DT_INT64" }
        }
      },
      {
        "name": "PartitionedCall/Cast_1",
        "op": "Const",
        "attr": {
          "value": { "tensor": { "dtype": "DT_INT64", "tensorShape": { "dim": [{ "size": "1" }] } } },
          "dtype": { "type": "DT_INT64" }
        }
      },
      {
        "name": "PartitionedCall/SelectV2_2",
        "op": "Const",
        "attr": {
          "value": { "tensor": { "dtype": "DT_INT64", "tensorShape": { "dim": [{ "size": "1" }] } } },
          "dtype": { "type": "DT_INT64" }
        }
      },
      {
        "name": "PartitionedCall/Const_2",
        "op": "Const",
        "attr": { "dtype": { "type": "DT_INT64" }, "value": { "tensor": { "dtype": "DT_INT64", "tensorShape": {} } } }
      },
      {
        "name": "PartitionedCall/ones",
        "op": "Const",
        "attr": {
          "value": { "tensor": { "dtype": "DT_INT64", "tensorShape": { "dim": [{ "size": "4" }] } } },
          "dtype": { "type": "DT_INT64" }
        }
      },
      {
        "name": "PartitionedCall/Const",
        "op": "Const",
        "attr": {
          "dtype": { "type": "DT_INT32" },
          "value": { "tensor": { "dtype": "DT_INT32", "tensorShape": { "dim": [{ "size": "4" }, { "size": "2" }] } } }
        }
      },
      {
        "name": "PartitionedCall/transpose_1/perm",
        "op": "Const",
        "attr": {
          "value": { "tensor": { "dtype": "DT_INT32", "tensorShape": { "dim": [{ "size": "4" }] } } },
          "dtype": { "type": "DT_INT32" }
        }
      },
      {
        "name": "PartitionedCall/split",
        "op": "Const",
        "attr": {
          "dtype": { "type": "DT_FLOAT" },
          "value": {
            "tensor": {
              "dtype": "DT_FLOAT",
              "tensorShape": { "dim": [{ "size": "3" }, { "size": "3" }, { "size": "3" }, { "size": "48" }] }
            }
          }
        }
      },
      {
        "name": "unknown_0",
        "op": "Const",
        "attr": {
          "dtype": { "type": "DT_FLOAT" },
          "value": { "tensor": { "dtype": "DT_FLOAT", "tensorShape": { "dim": [{ "size": "48" }] } } }
        }
      },
      {
        "name": "PartitionedCall/transpose_2/perm",
        "op": "Const",
        "attr": {
          "value": { "tensor": { "dtype": "DT_INT32", "tensorShape": { "dim": [{ "size": "4" }] } } },
          "dtype": { "type": "DT_INT32" }
        }
      },
      {
        "name": "PartitionedCall/Const_1",
        "op": "Const",
        "attr": {
          "value": { "tensor": { "dtype": "DT_INT32", "tensorShape": { "dim": [{ "size": "4" }, { "size": "2" }] } } },
          "dtype": { "type": "DT_INT32" }
        }
      },
      {
        "name": "PartitionedCall/transpose_4/perm",
        "op": "Const",
        "attr": {
          "value": { "tensor": { "dtype": "DT_INT32", "tensorShape": { "dim": [{ "size": "4" }] } } },
          "dtype": { "type": "DT_INT32" }
        }
      },
      {
        "name": "PartitionedCall/split_1",
        "op": "Const",
        "attr": {
          "dtype": { "type": "DT_FLOAT" },
          "value": {
            "tensor": {
              "dtype": "DT_FLOAT",
              "tensorShape": { "dim": [{ "size": "3" }, { "size": "3" }, { "size": "48" }, { "size": "96" }] }
            }
          }
        }
      },
      {
        "name": "unknown_2",
        "op": "Const",
        "attr": {
          "dtype": { "type": "DT_FLOAT" },
          "value": { "tensor": { "dtype": "DT_FLOAT", "tensorShape": { "dim": [{ "size": "96" }] } } }
        }
      },
      {
        "name": "PartitionedCall/transpose_5/perm",
        "op": "Const",
        "attr": {
          "value": { "tensor": { "dtype": "DT_INT32", "tensorShape": { "dim": [{ "size": "4" }] } } },
          "dtype": { "type": "DT_INT32" }
        }
      },
      {
        "name": "PartitionedCall/transpose_7/perm",
        "op": "Const",
        "attr": {
          "dtype": { "type": "DT_INT32" },
          "value": { "tensor": { "dtype": "DT_INT32", "tensorShape": { "dim": [{ "size": "4" }] } } }
        }
      },
      {
        "name": "PartitionedCall/split_2",
        "op": "Const",
        "attr": {
          "value": {
            "tensor": {
              "dtype": "DT_FLOAT",
              "tensorShape": { "dim": [{ "size": "1" }, { "size": "1" }, { "size": "96" }, { "size": "96" }] }
            }
          },
          "dtype": { "type": "DT_FLOAT" }
        }
      },
      {
        "name": "unknown_4",
        "op": "Const",
        "attr": {
          "value": { "tensor": { "dtype": "DT_FLOAT", "tensorShape": { "dim": [{ "size": "96" }] } } },
          "dtype": { "type": "DT_FLOAT" }
        }
      },
      {
        "name": "PartitionedCall/transpose_8/perm",
        "op": "Const",
        "attr": {
          "value": { "tensor": { "dtype": "DT_INT32", "tensorShape": { "dim": [{ "size": "4" }] } } },
          "dtype": { "type": "DT_INT32" }
        }
      },
      {
        "name": "PartitionedCall/SelectV2_5",
        "op": "Const",
        "attr": {
          "dtype": { "type": "DT_INT64" },
          "value": { "tensor": { "dtype": "DT_INT64", "tensorShape": { "dim": [{ "size": "1" }] } } }
        }
      },
      {
        "name": "PartitionedCall/zeros_1",
        "op": "Const",
        "attr": { "dtype": { "type": "DT_INT64" }, "value": { "tensor": { "dtype": "DT_INT64", "tensorShape": {} } } }
      },
      {
        "name": "PartitionedCall/Const_5",
        "op": "Const",
        "attr": { "value": { "tensor": { "dtype": "DT_INT64", "tensorShape": {} } }, "dtype": { "type": "DT_INT64" } }
      },
      {
        "name": "PartitionedCall/Shape_1",
        "op": "Const",
        "attr": {
          "value": { "tensor": { "dtype": "DT_INT64", "tensorShape": { "dim": [{ "size": "4" }] } } },
          "dtype": { "type": "DT_INT64" }
        }
      },
      {
        "name": "PartitionedCall/ExpandDims_1",
        "op": "Const",
        "attr": {
          "dtype": { "type": "DT_INT64" },
          "value": { "tensor": { "dtype": "DT_INT64", "tensorShape": { "dim": [{ "size": "1" }, { "size": "1" }] } } }
        }
      },
      {
        "name": "PartitionedCall/Cast_3",
        "op": "Const",
        "attr": {
          "dtype": { "type": "DT_INT64" },
          "value": { "tensor": { "dtype": "DT_INT64", "tensorShape": { "dim": [{ "size": "1" }] } } }
        }
      },
      {
        "name": "PartitionedCall/SelectV2_6",
        "op": "Const",
        "attr": {
          "dtype": { "type": "DT_INT64" },
          "value": { "tensor": { "dtype": "DT_INT64", "tensorShape": { "dim": [{ "size": "1" }] } } }
        }
      },
      {
        "name": "PartitionedCall/Const_4",
        "op": "Const",
        "attr": { "value": { "tensor": { "dtype": "DT_INT64", "tensorShape": {} } }, "dtype": { "type": "DT_INT64" } }
      },
      {
        "name": "PartitionedCall/ones_1",
        "op": "Const",
        "attr": {
          "dtype": { "type": "DT_INT64" },
          "value": { "tensor": { "dtype": "DT_INT64", "tensorShape": { "dim": [{ "size": "4" }] } } }
        }
      },
      {
        "name": "PartitionedCall/Const_6",
        "op": "Const",
        "attr": {
          "value": { "tensor": { "dtype": "DT_INT32", "tensorShape": { "dim": [{ "size": "4" }, { "size": "2" }] } } },
          "dtype": { "type": "DT_INT32" }
        }
      },
      {
        "name": "PartitionedCall/transpose_10/perm",
        "op": "Const",
        "attr": {
          "dtype": { "type": "DT_INT32" },
          "value": { "tensor": { "dtype": "DT_INT32", "tensorShape": { "dim": [{ "size": "4" }] } } }
        }
      },
      {
        "name": "PartitionedCall/split_3",
        "op": "Const",
        "attr": {
          "dtype": { "type": "DT_FLOAT" },
          "value": {
            "tensor": {
              "dtype": "DT_FLOAT",
              "tensorShape": { "dim": [{ "size": "3" }, { "size": "3" }, { "size": "48" }, { "size": "48" }] }
            }
          }
        }
      },
      {
        "name": "unknown_10",
        "op": "Const",
        "attr": {
          "value": { "tensor": { "dtype": "DT_FLOAT", "tensorShape": { "dim": [{ "size": "48" }] } } },
          "dtype": { "type": "DT_FLOAT" }
        }
      },
      {
        "name": "PartitionedCall/transpose_11/perm",
        "op": "Const",
        "attr": {
          "value": { "tensor": { "dtype": "DT_INT32", "tensorShape": { "dim": [{ "size": "4" }] } } },
          "dtype": { "type": "DT_INT32" }
        }
      },
      {
        "name": "PartitionedCall/Const_7",
        "op": "Const",
        "attr": {
          "value": { "tensor": { "dtype": "DT_INT32", "tensorShape": { "dim": [{ "size": "4" }, { "size": "2" }] } } },
          "dtype": { "type": "DT_INT32" }
        }
      },
      {
        "name": "PartitionedCall/transpose_13/perm",
        "op": "Const",
        "attr": {
          "value": { "tensor": { "dtype": "DT_INT32", "tensorShape": { "dim": [{ "size": "4" }] } } },
          "dtype": { "type": "DT_INT32" }
        }
      },
      {
        "name": "PartitionedCall/split_4",
        "op": "Const",
        "attr": {
          "value": {
            "tensor": {
              "dtype": "DT_FLOAT",
              "tensorShape": { "dim": [{ "size": "3" }, { "size": "3" }, { "size": "48" }, { "size": "48" }] }
            }
          },
          "dtype": { "type": "DT_FLOAT" }
        }
      },
      {
        "name": "unknown_12",
        "op": "Const",
        "attr": {
          "dtype": { "type": "DT_FLOAT" },
          "value": { "tensor": { "dtype": "DT_FLOAT", "tensorShape": { "dim": [{ "size": "48" }] } } }
        }
      },
      {
        "name": "PartitionedCall/transpose_14/perm",
        "op": "Const",
        "attr": {
          "value": { "tensor": { "dtype": "DT_INT32", "tensorShape": { "dim": [{ "size": "4" }] } } },
          "dtype": { "type": "DT_INT32" }
        }
      },
      {
        "name": "PartitionedCall/Const_8",
        "op": "Const",
        "attr": {
          "dtype": { "type": "DT_INT32" },
          "value": { "tensor": { "dtype": "DT_INT32", "tensorShape": { "dim": [{ "size": "4" }, { "size": "2" }] } } }
        }
      },
      {
        "name": "PartitionedCall/transpose_16/perm",
        "op": "Const",
        "attr": {
          "dtype": { "type": "DT_INT32" },
          "value": { "tensor": { "dtype": "DT_INT32", "tensorShape": { "dim": [{ "size": "4" }] } } }
        }
      },
      {
        "name": "PartitionedCall/split_5",
        "op": "Const",
        "attr": {
          "dtype": { "type": "DT_FLOAT" },
          "value": {
            "tensor": {
              "dtype": "DT_FLOAT",
              "tensorShape": { "dim": [{ "size": "3" }, { "size": "3" }, { "size": "48" }, { "size": "48" }] }
            }
          }
        }
      },
      {
        "name": "unknown_14",
        "op": "Const",
        "attr": {
          "value": { "tensor": { "dtype": "DT_FLOAT", "tensorShape": { "dim": [{ "size": "48" }] } } },
          "dtype": { "type": "DT_FLOAT" }
        }
      },
      {
        "name": "PartitionedCall/transpose_17/perm",
        "op": "Const",
        "attr": {
          "dtype": { "type": "DT_INT32" },
          "value": { "tensor": { "dtype": "DT_INT32", "tensorShape": { "dim": [{ "size": "4" }] } } }
        }
      },
      {
        "name": "PartitionedCall/Const_9",
        "op": "Const",
        "attr": {
          "value": { "tensor": { "dtype": "DT_INT32", "tensorShape": { "dim": [{ "size": "4" }, { "size": "2" }] } } },
          "dtype": { "type": "DT_INT32" }
        }
      },
      {
        "name": "PartitionedCall/transpose_19/perm",
        "op": "Const",
        "attr": {
          "dtype": { "type": "DT_INT32" },
          "value": { "tensor": { "dtype": "DT_INT32", "tensorShape": { "dim": [{ "size": "4" }] } } }
        }
      },
      {
        "name": "PartitionedCall/split_6",
        "op": "Const",
        "attr": {
          "value": {
            "tensor": {
              "dtype": "DT_FLOAT",
              "tensorShape": { "dim": [{ "size": "3" }, { "size": "3" }, { "size": "48" }, { "size": "48" }] }
            }
          },
          "dtype": { "type": "DT_FLOAT" }
        }
      },
      {
        "name": "unknown_16",
        "op": "Const",
        "attr": {
          "dtype": { "type": "DT_FLOAT" },
          "value": { "tensor": { "dtype": "DT_FLOAT", "tensorShape": { "dim": [{ "size": "48" }] } } }
        }
      },
      {
        "name": "PartitionedCall/transpose_20/perm",
        "op": "Const",
        "attr": {
          "dtype": { "type": "DT_INT32" },
          "value": { "tensor": { "dtype": "DT_INT32", "tensorShape": { "dim": [{ "size": "4" }] } } }
        }
      },
      {
        "name": "PartitionedCall/onnx_tf_prefix_/model.2/Concat/axis",
        "op": "Const",
        "attr": { "value": { "tensor": { "dtype": "DT_INT32", "tensorShape": {} } }, "dtype": { "type": "DT_INT32" } }
      },
      {
        "name": "PartitionedCall/transpose_22/perm",
        "op": "Const",
        "attr": {
          "value": { "tensor": { "dtype": "DT_INT32", "tensorShape": { "dim": [{ "size": "4" }] } } },
          "dtype": { "type": "DT_INT32" }
        }
      },
      {
        "name": "PartitionedCall/split_7",
        "op": "Const",
        "attr": {
          "value": {
            "tensor": {
              "dtype": "DT_FLOAT",
              "tensorShape": { "dim": [{ "size": "1" }, { "size": "1" }, { "size": "192" }, { "size": "96" }] }
            }
          },
          "dtype": { "type": "DT_FLOAT" }
        }
      },
      {
        "name": "unknown_18",
        "op": "Const",
        "attr": {
          "dtype": { "type": "DT_FLOAT" },
          "value": { "tensor": { "dtype": "DT_FLOAT", "tensorShape": { "dim": [{ "size": "96" }] } } }
        }
      },
      {
        "name": "PartitionedCall/transpose_23/perm",
        "op": "Const",
        "attr": {
          "dtype": { "type": "DT_INT32" },
          "value": { "tensor": { "dtype": "DT_INT32", "tensorShape": { "dim": [{ "size": "4" }] } } }
        }
      },
      {
        "name": "PartitionedCall/Const_10",
        "op": "Const",
        "attr": {
          "dtype": { "type": "DT_INT32" },
          "value": { "tensor": { "dtype": "DT_INT32", "tensorShape": { "dim": [{ "size": "4" }, { "size": "2" }] } } }
        }
      },
      {
        "name": "PartitionedCall/transpose_25/perm",
        "op": "Const",
        "attr": {
          "dtype": { "type": "DT_INT32" },
          "value": { "tensor": { "dtype": "DT_INT32", "tensorShape": { "dim": [{ "size": "4" }] } } }
        }
      },
      {
        "name": "PartitionedCall/split_8",
        "op": "Const",
        "attr": {
          "dtype": { "type": "DT_FLOAT" },
          "value": {
            "tensor": {
              "dtype": "DT_FLOAT",
              "tensorShape": { "dim": [{ "size": "3" }, { "size": "3" }, { "size": "96" }, { "size": "192" }] }
            }
          }
        }
      },
      {
        "name": "unknown_20",
        "op": "Const",
        "attr": {
          "value": { "tensor": { "dtype": "DT_FLOAT", "tensorShape": { "dim": [{ "size": "192" }] } } },
          "dtype": { "type": "DT_FLOAT" }
        }
      },
      {
        "name": "PartitionedCall/transpose_26/perm",
        "op": "Const",
        "attr": {
          "dtype": { "type": "DT_INT32" },
          "value": { "tensor": { "dtype": "DT_INT32", "tensorShape": { "dim": [{ "size": "4" }] } } }
        }
      },
      {
        "name": "PartitionedCall/transpose_28/perm",
        "op": "Const",
        "attr": {
          "dtype": { "type": "DT_INT32" },
          "value": { "tensor": { "dtype": "DT_INT32", "tensorShape": { "dim": [{ "size": "4" }] } } }
        }
      },
      {
        "name": "PartitionedCall/split_9",
        "op": "Const",
        "attr": {
          "value": {
            "tensor": {
              "dtype": "DT_FLOAT",
              "tensorShape": { "dim": [{ "size": "1" }, { "size": "1" }, { "size": "192" }, { "size": "192" }] }
            }
          },
          "dtype": { "type": "DT_FLOAT" }
        }
      },
      {
        "name": "unknown_22",
        "op": "Const",
        "attr": {
          "value": { "tensor": { "dtype": "DT_FLOAT", "tensorShape": { "dim": [{ "size": "192" }] } } },
          "dtype": { "type": "DT_FLOAT" }
        }
      },
      {
        "name": "PartitionedCall/transpose_29/perm",
        "op": "Const",
        "attr": {
          "dtype": { "type": "DT_INT32" },
          "value": { "tensor": { "dtype": "DT_INT32", "tensorShape": { "dim": [{ "size": "4" }] } } }
        }
      },
      {
        "name": "PartitionedCall/SelectV2_13",
        "op": "Const",
        "attr": {
          "value": { "tensor": { "dtype": "DT_INT64", "tensorShape": { "dim": [{ "size": "1" }] } } },
          "dtype": { "type": "DT_INT64" }
        }
      },
      {
        "name": "PartitionedCall/zeros_3",
        "op": "Const",
        "attr": { "value": { "tensor": { "dtype": "DT_INT64", "tensorShape": {} } }, "dtype": { "type": "DT_INT64" } }
      },
      {
        "name": "PartitionedCall/Const_14",
        "op": "Const",
        "attr": { "dtype": { "type": "DT_INT64" }, "value": { "tensor": { "dtype": "DT_INT64", "tensorShape": {} } } }
      },
      {
        "name": "PartitionedCall/Shape_3",
        "op": "Const",
        "attr": {
          "value": { "tensor": { "dtype": "DT_INT64", "tensorShape": { "dim": [{ "size": "4" }] } } },
          "dtype": { "type": "DT_INT64" }
        }
      },
      {
        "name": "PartitionedCall/ExpandDims_3",
        "op": "Const",
        "attr": {
          "value": { "tensor": { "dtype": "DT_INT64", "tensorShape": { "dim": [{ "size": "1" }, { "size": "1" }] } } },
          "dtype": { "type": "DT_INT64" }
        }
      },
      {
        "name": "PartitionedCall/Cast_7",
        "op": "Const",
        "attr": {
          "value": { "tensor": { "dtype": "DT_INT64", "tensorShape": { "dim": [{ "size": "1" }] } } },
          "dtype": { "type": "DT_INT64" }
        }
      },
      {
        "name": "PartitionedCall/SelectV2_14",
        "op": "Const",
        "attr": {
          "dtype": { "type": "DT_INT64" },
          "value": { "tensor": { "dtype": "DT_INT64", "tensorShape": { "dim": [{ "size": "1" }] } } }
        }
      },
      {
        "name": "PartitionedCall/Const_13",
        "op": "Const",
        "attr": { "value": { "tensor": { "dtype": "DT_INT64", "tensorShape": {} } }, "dtype": { "type": "DT_INT64" } }
      },
      {
        "name": "PartitionedCall/ones_3",
        "op": "Const",
        "attr": {
          "value": { "tensor": { "dtype": "DT_INT64", "tensorShape": { "dim": [{ "size": "4" }] } } },
          "dtype": { "type": "DT_INT64" }
        }
      },
      {
        "name": "PartitionedCall/Const_15",
        "op": "Const",
        "attr": {
          "dtype": { "type": "DT_INT32" },
          "value": { "tensor": { "dtype": "DT_INT32", "tensorShape": { "dim": [{ "size": "4" }, { "size": "2" }] } } }
        }
      },
      {
        "name": "PartitionedCall/transpose_31/perm",
        "op": "Const",
        "attr": {
          "dtype": { "type": "DT_INT32" },
          "value": { "tensor": { "dtype": "DT_INT32", "tensorShape": { "dim": [{ "size": "4" }] } } }
        }
      },
      {
        "name": "PartitionedCall/split_10",
        "op": "Const",
        "attr": {
          "value": {
            "tensor": {
              "dtype": "DT_FLOAT",
              "tensorShape": { "dim": [{ "size": "3" }, { "size": "3" }, { "size": "96" }, { "size": "96" }] }
            }
          },
          "dtype": { "type": "DT_FLOAT" }
        }
      },
      {
        "name": "unknown_25",
        "op": "Const",
        "attr": {
          "dtype": { "type": "DT_FLOAT" },
          "value": { "tensor": { "dtype": "DT_FLOAT", "tensorShape": { "dim": [{ "size": "96" }] } } }
        }
      },
      {
        "name": "PartitionedCall/transpose_32/perm",
        "op": "Const",
        "attr": {
          "value": { "tensor": { "dtype": "DT_INT32", "tensorShape": { "dim": [{ "size": "4" }] } } },
          "dtype": { "type": "DT_INT32" }
        }
      },
      {
        "name": "PartitionedCall/Const_16",
        "op": "Const",
        "attr": {
          "dtype": { "type": "DT_INT32" },
          "value": { "tensor": { "dtype": "DT_INT32", "tensorShape": { "dim": [{ "size": "4" }, { "size": "2" }] } } }
        }
      },
      {
        "name": "PartitionedCall/transpose_34/perm",
        "op": "Const",
        "attr": {
          "value": { "tensor": { "dtype": "DT_INT32", "tensorShape": { "dim": [{ "size": "4" }] } } },
          "dtype": { "type": "DT_INT32" }
        }
      },
      {
        "name": "PartitionedCall/split_11",
        "op": "Const",
        "attr": {
          "value": {
            "tensor": {
              "dtype": "DT_FLOAT",
              "tensorShape": { "dim": [{ "size": "3" }, { "size": "3" }, { "size": "96" }, { "size": "96" }] }
            }
          },
          "dtype": { "type": "DT_FLOAT" }
        }
      },
      {
        "name": "unknown_27",
        "op": "Const",
        "attr": {
          "dtype": { "type": "DT_FLOAT" },
          "value": { "tensor": { "dtype": "DT_FLOAT", "tensorShape": { "dim": [{ "size": "96" }] } } }
        }
      },
      {
        "name": "PartitionedCall/transpose_35/perm",
        "op": "Const",
        "attr": {
          "dtype": { "type": "DT_INT32" },
          "value": { "tensor": { "dtype": "DT_INT32", "tensorShape": { "dim": [{ "size": "4" }] } } }
        }
      },
      {
        "name": "PartitionedCall/Const_17",
        "op": "Const",
        "attr": {
          "value": { "tensor": { "dtype": "DT_INT32", "tensorShape": { "dim": [{ "size": "4" }, { "size": "2" }] } } },
          "dtype": { "type": "DT_INT32" }
        }
      },
      {
        "name": "PartitionedCall/transpose_37/perm",
        "op": "Const",
        "attr": {
          "dtype": { "type": "DT_INT32" },
          "value": { "tensor": { "dtype": "DT_INT32", "tensorShape": { "dim": [{ "size": "4" }] } } }
        }
      },
      {
        "name": "PartitionedCall/split_12",
        "op": "Const",
        "attr": {
          "value": {
            "tensor": {
              "dtype": "DT_FLOAT",
              "tensorShape": { "dim": [{ "size": "3" }, { "size": "3" }, { "size": "96" }, { "size": "96" }] }
            }
          },
          "dtype": { "type": "DT_FLOAT" }
        }
      },
      {
        "name": "unknown_29",
        "op": "Const",
        "attr": {
          "value": { "tensor": { "dtype": "DT_FLOAT", "tensorShape": { "dim": [{ "size": "96" }] } } },
          "dtype": { "type": "DT_FLOAT" }
        }
      },
      {
        "name": "PartitionedCall/transpose_38/perm",
        "op": "Const",
        "attr": {
          "value": { "tensor": { "dtype": "DT_INT32", "tensorShape": { "dim": [{ "size": "4" }] } } },
          "dtype": { "type": "DT_INT32" }
        }
      },
      {
        "name": "PartitionedCall/Const_18",
        "op": "Const",
        "attr": {
          "value": { "tensor": { "dtype": "DT_INT32", "tensorShape": { "dim": [{ "size": "4" }, { "size": "2" }] } } },
          "dtype": { "type": "DT_INT32" }
        }
      },
      {
        "name": "PartitionedCall/transpose_40/perm",
        "op": "Const",
        "attr": {
          "dtype": { "type": "DT_INT32" },
          "value": { "tensor": { "dtype": "DT_INT32", "tensorShape": { "dim": [{ "size": "4" }] } } }
        }
      },
      {
        "name": "PartitionedCall/split_13",
        "op": "Const",
        "attr": {
          "dtype": { "type": "DT_FLOAT" },
          "value": {
            "tensor": {
              "dtype": "DT_FLOAT",
              "tensorShape": { "dim": [{ "size": "3" }, { "size": "3" }, { "size": "96" }, { "size": "96" }] }
            }
          }
        }
      },
      {
        "name": "unknown_31",
        "op": "Const",
        "attr": {
          "value": { "tensor": { "dtype": "DT_FLOAT", "tensorShape": { "dim": [{ "size": "96" }] } } },
          "dtype": { "type": "DT_FLOAT" }
        }
      },
      {
        "name": "PartitionedCall/transpose_41/perm",
        "op": "Const",
        "attr": {
          "dtype": { "type": "DT_INT32" },
          "value": { "tensor": { "dtype": "DT_INT32", "tensorShape": { "dim": [{ "size": "4" }] } } }
        }
      },
      {
        "name": "PartitionedCall/Const_19",
        "op": "Const",
        "attr": {
          "dtype": { "type": "DT_INT32" },
          "value": { "tensor": { "dtype": "DT_INT32", "tensorShape": { "dim": [{ "size": "4" }, { "size": "2" }] } } }
        }
      },
      {
        "name": "PartitionedCall/transpose_43/perm",
        "op": "Const",
        "attr": {
          "value": { "tensor": { "dtype": "DT_INT32", "tensorShape": { "dim": [{ "size": "4" }] } } },
          "dtype": { "type": "DT_INT32" }
        }
      },
      {
        "name": "PartitionedCall/split_14",
        "op": "Const",
        "attr": {
          "dtype": { "type": "DT_FLOAT" },
          "value": {
            "tensor": {
              "dtype": "DT_FLOAT",
              "tensorShape": { "dim": [{ "size": "3" }, { "size": "3" }, { "size": "96" }, { "size": "96" }] }
            }
          }
        }
      },
      {
        "name": "unknown_33",
        "op": "Const",
        "attr": {
          "value": { "tensor": { "dtype": "DT_FLOAT", "tensorShape": { "dim": [{ "size": "96" }] } } },
          "dtype": { "type": "DT_FLOAT" }
        }
      },
      {
        "name": "PartitionedCall/transpose_44/perm",
        "op": "Const",
        "attr": {
          "value": { "tensor": { "dtype": "DT_INT32", "tensorShape": { "dim": [{ "size": "4" }] } } },
          "dtype": { "type": "DT_INT32" }
        }
      },
      {
        "name": "PartitionedCall/Const_20",
        "op": "Const",
        "attr": {
          "dtype": { "type": "DT_INT32" },
          "value": { "tensor": { "dtype": "DT_INT32", "tensorShape": { "dim": [{ "size": "4" }, { "size": "2" }] } } }
        }
      },
      {
        "name": "PartitionedCall/transpose_46/perm",
        "op": "Const",
        "attr": {
          "value": { "tensor": { "dtype": "DT_INT32", "tensorShape": { "dim": [{ "size": "4" }] } } },
          "dtype": { "type": "DT_INT32" }
        }
      },
      {
        "name": "PartitionedCall/split_15",
        "op": "Const",
        "attr": {
          "dtype": { "type": "DT_FLOAT" },
          "value": {
            "tensor": {
              "dtype": "DT_FLOAT",
              "tensorShape": { "dim": [{ "size": "3" }, { "size": "3" }, { "size": "96" }, { "size": "96" }] }
            }
          }
        }
      },
      {
        "name": "unknown_35",
        "op": "Const",
        "attr": {
          "value": { "tensor": { "dtype": "DT_FLOAT", "tensorShape": { "dim": [{ "size": "96" }] } } },
          "dtype": { "type": "DT_FLOAT" }
        }
      },
      {
        "name": "PartitionedCall/transpose_47/perm",
        "op": "Const",
        "attr": {
          "dtype": { "type": "DT_INT32" },
          "value": { "tensor": { "dtype": "DT_INT32", "tensorShape": { "dim": [{ "size": "4" }] } } }
        }
      },
      {
        "name": "PartitionedCall/Const_21",
        "op": "Const",
        "attr": {
          "value": { "tensor": { "dtype": "DT_INT32", "tensorShape": { "dim": [{ "size": "4" }, { "size": "2" }] } } },
          "dtype": { "type": "DT_INT32" }
        }
      },
      {
        "name": "PartitionedCall/transpose_49/perm",
        "op": "Const",
        "attr": {
          "dtype": { "type": "DT_INT32" },
          "value": { "tensor": { "dtype": "DT_INT32", "tensorShape": { "dim": [{ "size": "4" }] } } }
        }
      },
      {
        "name": "PartitionedCall/split_16",
        "op": "Const",
        "attr": {
          "dtype": { "type": "DT_FLOAT" },
          "value": {
            "tensor": {
              "dtype": "DT_FLOAT",
              "tensorShape": { "dim": [{ "size": "3" }, { "size": "3" }, { "size": "96" }, { "size": "96" }] }
            }
          }
        }
      },
      {
        "name": "unknown_37",
        "op": "Const",
        "attr": {
          "dtype": { "type": "DT_FLOAT" },
          "value": { "tensor": { "dtype": "DT_FLOAT", "tensorShape": { "dim": [{ "size": "96" }] } } }
        }
      },
      {
        "name": "PartitionedCall/transpose_50/perm",
        "op": "Const",
        "attr": {
          "dtype": { "type": "DT_INT32" },
          "value": { "tensor": { "dtype": "DT_INT32", "tensorShape": { "dim": [{ "size": "4" }] } } }
        }
      },
      {
        "name": "PartitionedCall/Const_22",
        "op": "Const",
        "attr": {
          "dtype": { "type": "DT_INT32" },
          "value": { "tensor": { "dtype": "DT_INT32", "tensorShape": { "dim": [{ "size": "4" }, { "size": "2" }] } } }
        }
      },
      {
        "name": "PartitionedCall/transpose_52/perm",
        "op": "Const",
        "attr": {
          "dtype": { "type": "DT_INT32" },
          "value": { "tensor": { "dtype": "DT_INT32", "tensorShape": { "dim": [{ "size": "4" }] } } }
        }
      },
      {
        "name": "PartitionedCall/split_17",
        "op": "Const",
        "attr": {
          "value": {
            "tensor": {
              "dtype": "DT_FLOAT",
              "tensorShape": { "dim": [{ "size": "3" }, { "size": "3" }, { "size": "96" }, { "size": "96" }] }
            }
          },
          "dtype": { "type": "DT_FLOAT" }
        }
      },
      {
        "name": "unknown_39",
        "op": "Const",
        "attr": {
          "dtype": { "type": "DT_FLOAT" },
          "value": { "tensor": { "dtype": "DT_FLOAT", "tensorShape": { "dim": [{ "size": "96" }] } } }
        }
      },
      {
        "name": "PartitionedCall/transpose_53/perm",
        "op": "Const",
        "attr": {
          "value": { "tensor": { "dtype": "DT_INT32", "tensorShape": { "dim": [{ "size": "4" }] } } },
          "dtype": { "type": "DT_INT32" }
        }
      },
      {
        "name": "PartitionedCall/onnx_tf_prefix_/model.4/Concat/axis",
        "op": "Const",
        "attr": { "dtype": { "type": "DT_INT32" }, "value": { "tensor": { "dtype": "DT_INT32", "tensorShape": {} } } }
      },
      {
        "name": "PartitionedCall/transpose_55/perm",
        "op": "Const",
        "attr": {
          "dtype": { "type": "DT_INT32" },
          "value": { "tensor": { "dtype": "DT_INT32", "tensorShape": { "dim": [{ "size": "4" }] } } }
        }
      },
      {
        "name": "PartitionedCall/split_18",
        "op": "Const",
        "attr": {
          "dtype": { "type": "DT_FLOAT" },
          "value": {
            "tensor": {
              "dtype": "DT_FLOAT",
              "tensorShape": { "dim": [{ "size": "1" }, { "size": "1" }, { "size": "576" }, { "size": "192" }] }
            }
          }
        }
      },
      {
        "name": "unknown_41",
        "op": "Const",
        "attr": {
          "value": { "tensor": { "dtype": "DT_FLOAT", "tensorShape": { "dim": [{ "size": "192" }] } } },
          "dtype": { "type": "DT_FLOAT" }
        }
      },
      {
        "name": "PartitionedCall/transpose_56/perm",
        "op": "Const",
        "attr": {
          "value": { "tensor": { "dtype": "DT_INT32", "tensorShape": { "dim": [{ "size": "4" }] } } },
          "dtype": { "type": "DT_INT32" }
        }
      },
      {
        "name": "PartitionedCall/Const_23",
        "op": "Const",
        "attr": {
          "dtype": { "type": "DT_INT32" },
          "value": { "tensor": { "dtype": "DT_INT32", "tensorShape": { "dim": [{ "size": "4" }, { "size": "2" }] } } }
        }
      },
      {
        "name": "PartitionedCall/transpose_58/perm",
        "op": "Const",
        "attr": {
          "value": { "tensor": { "dtype": "DT_INT32", "tensorShape": { "dim": [{ "size": "4" }] } } },
          "dtype": { "type": "DT_INT32" }
        }
      },
      {
        "name": "PartitionedCall/split_19",
        "op": "Const",
        "attr": {
          "dtype": { "type": "DT_FLOAT" },
          "value": {
            "tensor": {
              "dtype": "DT_FLOAT",
              "tensorShape": { "dim": [{ "size": "3" }, { "size": "3" }, { "size": "192" }, { "size": "384" }] }
            }
          }
        }
      },
      {
        "name": "unknown_43",
        "op": "Const",
        "attr": {
          "value": { "tensor": { "dtype": "DT_FLOAT", "tensorShape": { "dim": [{ "size": "384" }] } } },
          "dtype": { "type": "DT_FLOAT" }
        }
      },
      {
        "name": "PartitionedCall/transpose_59/perm",
        "op": "Const",
        "attr": {
          "dtype": { "type": "DT_INT32" },
          "value": { "tensor": { "dtype": "DT_INT32", "tensorShape": { "dim": [{ "size": "4" }] } } }
        }
      },
      {
        "name": "PartitionedCall/transpose_61/perm",
        "op": "Const",
        "attr": {
          "value": { "tensor": { "dtype": "DT_INT32", "tensorShape": { "dim": [{ "size": "4" }] } } },
          "dtype": { "type": "DT_INT32" }
        }
      },
      {
        "name": "PartitionedCall/split_20",
        "op": "Const",
        "attr": {
          "value": {
            "tensor": {
              "dtype": "DT_FLOAT",
              "tensorShape": { "dim": [{ "size": "1" }, { "size": "1" }, { "size": "384" }, { "size": "384" }] }
            }
          },
          "dtype": { "type": "DT_FLOAT" }
        }
      },
      {
        "name": "unknown_45",
        "op": "Const",
        "attr": {
          "dtype": { "type": "DT_FLOAT" },
          "value": { "tensor": { "dtype": "DT_FLOAT", "tensorShape": { "dim": [{ "size": "384" }] } } }
        }
      },
      {
        "name": "PartitionedCall/transpose_62/perm",
        "op": "Const",
        "attr": {
          "dtype": { "type": "DT_INT32" },
          "value": { "tensor": { "dtype": "DT_INT32", "tensorShape": { "dim": [{ "size": "4" }] } } }
        }
      },
      {
        "name": "PartitionedCall/SelectV2_21",
        "op": "Const",
        "attr": {
          "value": { "tensor": { "dtype": "DT_INT64", "tensorShape": { "dim": [{ "size": "1" }] } } },
          "dtype": { "type": "DT_INT64" }
        }
      },
      {
        "name": "PartitionedCall/zeros_5",
        "op": "Const",
        "attr": { "dtype": { "type": "DT_INT64" }, "value": { "tensor": { "dtype": "DT_INT64", "tensorShape": {} } } }
      },
      {
        "name": "PartitionedCall/Const_27",
        "op": "Const",
        "attr": { "value": { "tensor": { "dtype": "DT_INT64", "tensorShape": {} } }, "dtype": { "type": "DT_INT64" } }
      },
      {
        "name": "PartitionedCall/Shape_5",
        "op": "Const",
        "attr": {
          "dtype": { "type": "DT_INT64" },
          "value": { "tensor": { "dtype": "DT_INT64", "tensorShape": { "dim": [{ "size": "4" }] } } }
        }
      },
      {
        "name": "PartitionedCall/ExpandDims_5",
        "op": "Const",
        "attr": {
          "dtype": { "type": "DT_INT64" },
          "value": { "tensor": { "dtype": "DT_INT64", "tensorShape": { "dim": [{ "size": "1" }, { "size": "1" }] } } }
        }
      },
      {
        "name": "PartitionedCall/Cast_11",
        "op": "Const",
        "attr": {
          "dtype": { "type": "DT_INT64" },
          "value": { "tensor": { "dtype": "DT_INT64", "tensorShape": { "dim": [{ "size": "1" }] } } }
        }
      },
      {
        "name": "PartitionedCall/SelectV2_22",
        "op": "Const",
        "attr": {
          "dtype": { "type": "DT_INT64" },
          "value": { "tensor": { "dtype": "DT_INT64", "tensorShape": { "dim": [{ "size": "1" }] } } }
        }
      },
      {
        "name": "PartitionedCall/Const_26",
        "op": "Const",
        "attr": { "value": { "tensor": { "dtype": "DT_INT64", "tensorShape": {} } }, "dtype": { "type": "DT_INT64" } }
      },
      {
        "name": "PartitionedCall/ones_5",
        "op": "Const",
        "attr": {
          "dtype": { "type": "DT_INT64" },
          "value": { "tensor": { "dtype": "DT_INT64", "tensorShape": { "dim": [{ "size": "4" }] } } }
        }
      },
      {
        "name": "PartitionedCall/Const_28",
        "op": "Const",
        "attr": {
          "dtype": { "type": "DT_INT32" },
          "value": { "tensor": { "dtype": "DT_INT32", "tensorShape": { "dim": [{ "size": "4" }, { "size": "2" }] } } }
        }
      },
      {
        "name": "PartitionedCall/transpose_64/perm",
        "op": "Const",
        "attr": {
          "value": { "tensor": { "dtype": "DT_INT32", "tensorShape": { "dim": [{ "size": "4" }] } } },
          "dtype": { "type": "DT_INT32" }
        }
      },
      {
        "name": "PartitionedCall/split_21",
        "op": "Const",
        "attr": {
          "dtype": { "type": "DT_FLOAT" },
          "value": {
            "tensor": {
              "dtype": "DT_FLOAT",
              "tensorShape": { "dim": [{ "size": "3" }, { "size": "3" }, { "size": "192" }, { "size": "192" }] }
            }
          }
        }
      },
      {
        "name": "unknown_48",
        "op": "Const",
        "attr": {
          "value": { "tensor": { "dtype": "DT_FLOAT", "tensorShape": { "dim": [{ "size": "192" }] } } },
          "dtype": { "type": "DT_FLOAT" }
        }
      },
      {
        "name": "PartitionedCall/transpose_65/perm",
        "op": "Const",
        "attr": {
          "value": { "tensor": { "dtype": "DT_INT32", "tensorShape": { "dim": [{ "size": "4" }] } } },
          "dtype": { "type": "DT_INT32" }
        }
      },
      {
        "name": "PartitionedCall/Const_29",
        "op": "Const",
        "attr": {
          "value": { "tensor": { "dtype": "DT_INT32", "tensorShape": { "dim": [{ "size": "4" }, { "size": "2" }] } } },
          "dtype": { "type": "DT_INT32" }
        }
      },
      {
        "name": "PartitionedCall/transpose_67/perm",
        "op": "Const",
        "attr": {
          "dtype": { "type": "DT_INT32" },
          "value": { "tensor": { "dtype": "DT_INT32", "tensorShape": { "dim": [{ "size": "4" }] } } }
        }
      },
      {
        "name": "PartitionedCall/split_22",
        "op": "Const",
        "attr": {
          "value": {
            "tensor": {
              "dtype": "DT_FLOAT",
              "tensorShape": { "dim": [{ "size": "3" }, { "size": "3" }, { "size": "192" }, { "size": "192" }] }
            }
          },
          "dtype": { "type": "DT_FLOAT" }
        }
      },
      {
        "name": "unknown_50",
        "op": "Const",
        "attr": {
          "value": { "tensor": { "dtype": "DT_FLOAT", "tensorShape": { "dim": [{ "size": "192" }] } } },
          "dtype": { "type": "DT_FLOAT" }
        }
      },
      {
        "name": "PartitionedCall/transpose_68/perm",
        "op": "Const",
        "attr": {
          "dtype": { "type": "DT_INT32" },
          "value": { "tensor": { "dtype": "DT_INT32", "tensorShape": { "dim": [{ "size": "4" }] } } }
        }
      },
      {
        "name": "PartitionedCall/Const_30",
        "op": "Const",
        "attr": {
          "value": { "tensor": { "dtype": "DT_INT32", "tensorShape": { "dim": [{ "size": "4" }, { "size": "2" }] } } },
          "dtype": { "type": "DT_INT32" }
        }
      },
      {
        "name": "PartitionedCall/transpose_70/perm",
        "op": "Const",
        "attr": {
          "dtype": { "type": "DT_INT32" },
          "value": { "tensor": { "dtype": "DT_INT32", "tensorShape": { "dim": [{ "size": "4" }] } } }
        }
      },
      {
        "name": "PartitionedCall/split_23",
        "op": "Const",
        "attr": {
          "value": {
            "tensor": {
              "dtype": "DT_FLOAT",
              "tensorShape": { "dim": [{ "size": "3" }, { "size": "3" }, { "size": "192" }, { "size": "192" }] }
            }
          },
          "dtype": { "type": "DT_FLOAT" }
        }
      },
      {
        "name": "unknown_52",
        "op": "Const",
        "attr": {
          "dtype": { "type": "DT_FLOAT" },
          "value": { "tensor": { "dtype": "DT_FLOAT", "tensorShape": { "dim": [{ "size": "192" }] } } }
        }
      },
      {
        "name": "PartitionedCall/transpose_71/perm",
        "op": "Const",
        "attr": {
          "dtype": { "type": "DT_INT32" },
          "value": { "tensor": { "dtype": "DT_INT32", "tensorShape": { "dim": [{ "size": "4" }] } } }
        }
      },
      {
        "name": "PartitionedCall/Const_31",
        "op": "Const",
        "attr": {
          "value": { "tensor": { "dtype": "DT_INT32", "tensorShape": { "dim": [{ "size": "4" }, { "size": "2" }] } } },
          "dtype": { "type": "DT_INT32" }
        }
      },
      {
        "name": "PartitionedCall/transpose_73/perm",
        "op": "Const",
        "attr": {
          "dtype": { "type": "DT_INT32" },
          "value": { "tensor": { "dtype": "DT_INT32", "tensorShape": { "dim": [{ "size": "4" }] } } }
        }
      },
      {
        "name": "PartitionedCall/split_24",
        "op": "Const",
        "attr": {
          "dtype": { "type": "DT_FLOAT" },
          "value": {
            "tensor": {
              "dtype": "DT_FLOAT",
              "tensorShape": { "dim": [{ "size": "3" }, { "size": "3" }, { "size": "192" }, { "size": "192" }] }
            }
          }
        }
      },
      {
        "name": "unknown_54",
        "op": "Const",
        "attr": {
          "value": { "tensor": { "dtype": "DT_FLOAT", "tensorShape": { "dim": [{ "size": "192" }] } } },
          "dtype": { "type": "DT_FLOAT" }
        }
      },
      {
        "name": "PartitionedCall/transpose_74/perm",
        "op": "Const",
        "attr": {
          "dtype": { "type": "DT_INT32" },
          "value": { "tensor": { "dtype": "DT_INT32", "tensorShape": { "dim": [{ "size": "4" }] } } }
        }
      },
      {
        "name": "PartitionedCall/Const_32",
        "op": "Const",
        "attr": {
          "dtype": { "type": "DT_INT32" },
          "value": { "tensor": { "dtype": "DT_INT32", "tensorShape": { "dim": [{ "size": "4" }, { "size": "2" }] } } }
        }
      },
      {
        "name": "PartitionedCall/transpose_76/perm",
        "op": "Const",
        "attr": {
          "value": { "tensor": { "dtype": "DT_INT32", "tensorShape": { "dim": [{ "size": "4" }] } } },
          "dtype": { "type": "DT_INT32" }
        }
      },
      {
        "name": "PartitionedCall/split_25",
        "op": "Const",
        "attr": {
          "dtype": { "type": "DT_FLOAT" },
          "value": {
            "tensor": {
              "dtype": "DT_FLOAT",
              "tensorShape": { "dim": [{ "size": "3" }, { "size": "3" }, { "size": "192" }, { "size": "192" }] }
            }
          }
        }
      },
      {
        "name": "unknown_56",
        "op": "Const",
        "attr": {
          "dtype": { "type": "DT_FLOAT" },
          "value": { "tensor": { "dtype": "DT_FLOAT", "tensorShape": { "dim": [{ "size": "192" }] } } }
        }
      },
      {
        "name": "PartitionedCall/transpose_77/perm",
        "op": "Const",
        "attr": {
          "value": { "tensor": { "dtype": "DT_INT32", "tensorShape": { "dim": [{ "size": "4" }] } } },
          "dtype": { "type": "DT_INT32" }
        }
      },
      {
        "name": "PartitionedCall/Const_33",
        "op": "Const",
        "attr": {
          "dtype": { "type": "DT_INT32" },
          "value": { "tensor": { "dtype": "DT_INT32", "tensorShape": { "dim": [{ "size": "4" }, { "size": "2" }] } } }
        }
      },
      {
        "name": "PartitionedCall/transpose_79/perm",
        "op": "Const",
        "attr": {
          "dtype": { "type": "DT_INT32" },
          "value": { "tensor": { "dtype": "DT_INT32", "tensorShape": { "dim": [{ "size": "4" }] } } }
        }
      },
      {
        "name": "PartitionedCall/split_26",
        "op": "Const",
        "attr": {
          "dtype": { "type": "DT_FLOAT" },
          "value": {
            "tensor": {
              "dtype": "DT_FLOAT",
              "tensorShape": { "dim": [{ "size": "3" }, { "size": "3" }, { "size": "192" }, { "size": "192" }] }
            }
          }
        }
      },
      {
        "name": "unknown_58",
        "op": "Const",
        "attr": {
          "value": { "tensor": { "dtype": "DT_FLOAT", "tensorShape": { "dim": [{ "size": "192" }] } } },
          "dtype": { "type": "DT_FLOAT" }
        }
      },
      {
        "name": "PartitionedCall/transpose_80/perm",
        "op": "Const",
        "attr": {
          "dtype": { "type": "DT_INT32" },
          "value": { "tensor": { "dtype": "DT_INT32", "tensorShape": { "dim": [{ "size": "4" }] } } }
        }
      },
      {
        "name": "PartitionedCall/Const_34",
        "op": "Const",
        "attr": {
          "value": { "tensor": { "dtype": "DT_INT32", "tensorShape": { "dim": [{ "size": "4" }, { "size": "2" }] } } },
          "dtype": { "type": "DT_INT32" }
        }
      },
      {
        "name": "PartitionedCall/transpose_82/perm",
        "op": "Const",
        "attr": {
          "dtype": { "type": "DT_INT32" },
          "value": { "tensor": { "dtype": "DT_INT32", "tensorShape": { "dim": [{ "size": "4" }] } } }
        }
      },
      {
        "name": "PartitionedCall/split_27",
        "op": "Const",
        "attr": {
          "dtype": { "type": "DT_FLOAT" },
          "value": {
            "tensor": {
              "dtype": "DT_FLOAT",
              "tensorShape": { "dim": [{ "size": "3" }, { "size": "3" }, { "size": "192" }, { "size": "192" }] }
            }
          }
        }
      },
      {
        "name": "unknown_60",
        "op": "Const",
        "attr": {
          "value": { "tensor": { "dtype": "DT_FLOAT", "tensorShape": { "dim": [{ "size": "192" }] } } },
          "dtype": { "type": "DT_FLOAT" }
        }
      },
      {
        "name": "PartitionedCall/transpose_83/perm",
        "op": "Const",
        "attr": {
          "value": { "tensor": { "dtype": "DT_INT32", "tensorShape": { "dim": [{ "size": "4" }] } } },
          "dtype": { "type": "DT_INT32" }
        }
      },
      {
        "name": "PartitionedCall/Const_35",
        "op": "Const",
        "attr": {
          "value": { "tensor": { "dtype": "DT_INT32", "tensorShape": { "dim": [{ "size": "4" }, { "size": "2" }] } } },
          "dtype": { "type": "DT_INT32" }
        }
      },
      {
        "name": "PartitionedCall/transpose_85/perm",
        "op": "Const",
        "attr": {
          "dtype": { "type": "DT_INT32" },
          "value": { "tensor": { "dtype": "DT_INT32", "tensorShape": { "dim": [{ "size": "4" }] } } }
        }
      },
      {
        "name": "PartitionedCall/split_28",
        "op": "Const",
        "attr": {
          "dtype": { "type": "DT_FLOAT" },
          "value": {
            "tensor": {
              "dtype": "DT_FLOAT",
              "tensorShape": { "dim": [{ "size": "3" }, { "size": "3" }, { "size": "192" }, { "size": "192" }] }
            }
          }
        }
      },
      {
        "name": "unknown_62",
        "op": "Const",
        "attr": {
          "dtype": { "type": "DT_FLOAT" },
          "value": { "tensor": { "dtype": "DT_FLOAT", "tensorShape": { "dim": [{ "size": "192" }] } } }
        }
      },
      {
        "name": "PartitionedCall/transpose_86/perm",
        "op": "Const",
        "attr": {
          "value": { "tensor": { "dtype": "DT_INT32", "tensorShape": { "dim": [{ "size": "4" }] } } },
          "dtype": { "type": "DT_INT32" }
        }
      },
      {
        "name": "PartitionedCall/onnx_tf_prefix_/model.6/Concat/axis",
        "op": "Const",
        "attr": { "value": { "tensor": { "dtype": "DT_INT32", "tensorShape": {} } }, "dtype": { "type": "DT_INT32" } }
      },
      {
        "name": "PartitionedCall/transpose_88/perm",
        "op": "Const",
        "attr": {
          "value": { "tensor": { "dtype": "DT_INT32", "tensorShape": { "dim": [{ "size": "4" }] } } },
          "dtype": { "type": "DT_INT32" }
        }
      },
      {
        "name": "PartitionedCall/split_29",
        "op": "Const",
        "attr": {
          "value": {
            "tensor": {
              "dtype": "DT_FLOAT",
              "tensorShape": { "dim": [{ "size": "1" }, { "size": "1" }, { "size": "1152" }, { "size": "384" }] }
            }
          },
          "dtype": { "type": "DT_FLOAT" }
        }
      },
      {
        "name": "unknown_64",
        "op": "Const",
        "attr": {
          "value": { "tensor": { "dtype": "DT_FLOAT", "tensorShape": { "dim": [{ "size": "384" }] } } },
          "dtype": { "type": "DT_FLOAT" }
        }
      },
      {
        "name": "PartitionedCall/transpose_89/perm",
        "op": "Const",
        "attr": {
          "value": { "tensor": { "dtype": "DT_INT32", "tensorShape": { "dim": [{ "size": "4" }] } } },
          "dtype": { "type": "DT_INT32" }
        }
      },
      {
        "name": "PartitionedCall/Const_36",
        "op": "Const",
        "attr": {
          "value": { "tensor": { "dtype": "DT_INT32", "tensorShape": { "dim": [{ "size": "4" }, { "size": "2" }] } } },
          "dtype": { "type": "DT_INT32" }
        }
      },
      {
        "name": "PartitionedCall/transpose_91/perm",
        "op": "Const",
        "attr": {
          "value": { "tensor": { "dtype": "DT_INT32", "tensorShape": { "dim": [{ "size": "4" }] } } },
          "dtype": { "type": "DT_INT32" }
        }
      },
      {
        "name": "PartitionedCall/split_30",
        "op": "Const",
        "attr": {
          "value": {
            "tensor": {
              "dtype": "DT_FLOAT",
              "tensorShape": { "dim": [{ "size": "3" }, { "size": "3" }, { "size": "384" }, { "size": "576" }] }
            }
          },
          "dtype": { "type": "DT_FLOAT" }
        }
      },
      {
        "name": "unknown_66",
        "op": "Const",
        "attr": {
          "value": { "tensor": { "dtype": "DT_FLOAT", "tensorShape": { "dim": [{ "size": "576" }] } } },
          "dtype": { "type": "DT_FLOAT" }
        }
      },
      {
        "name": "PartitionedCall/transpose_92/perm",
        "op": "Const",
        "attr": {
          "value": { "tensor": { "dtype": "DT_INT32", "tensorShape": { "dim": [{ "size": "4" }] } } },
          "dtype": { "type": "DT_INT32" }
        }
      },
      {
        "name": "PartitionedCall/transpose_94/perm",
        "op": "Const",
        "attr": {
          "value": { "tensor": { "dtype": "DT_INT32", "tensorShape": { "dim": [{ "size": "4" }] } } },
          "dtype": { "type": "DT_INT32" }
        }
      },
      {
        "name": "PartitionedCall/split_31",
        "op": "Const",
        "attr": {
          "value": {
            "tensor": {
              "dtype": "DT_FLOAT",
              "tensorShape": { "dim": [{ "size": "1" }, { "size": "1" }, { "size": "576" }, { "size": "576" }] }
            }
          },
          "dtype": { "type": "DT_FLOAT" }
        }
      },
      {
        "name": "unknown_68",
        "op": "Const",
        "attr": {
          "dtype": { "type": "DT_FLOAT" },
          "value": { "tensor": { "dtype": "DT_FLOAT", "tensorShape": { "dim": [{ "size": "576" }] } } }
        }
      },
      {
        "name": "PartitionedCall/transpose_95/perm",
        "op": "Const",
        "attr": {
          "value": { "tensor": { "dtype": "DT_INT32", "tensorShape": { "dim": [{ "size": "4" }] } } },
          "dtype": { "type": "DT_INT32" }
        }
      },
      {
        "name": "PartitionedCall/SelectV2_29",
        "op": "Const",
        "attr": {
          "value": { "tensor": { "dtype": "DT_INT64", "tensorShape": { "dim": [{ "size": "1" }] } } },
          "dtype": { "type": "DT_INT64" }
        }
      },
      {
        "name": "PartitionedCall/zeros_7",
        "op": "Const",
        "attr": { "dtype": { "type": "DT_INT64" }, "value": { "tensor": { "dtype": "DT_INT64", "tensorShape": {} } } }
      },
      {
        "name": "PartitionedCall/Const_40",
        "op": "Const",
        "attr": { "value": { "tensor": { "dtype": "DT_INT64", "tensorShape": {} } }, "dtype": { "type": "DT_INT64" } }
      },
      {
        "name": "PartitionedCall/Shape_7",
        "op": "Const",
        "attr": {
          "value": { "tensor": { "dtype": "DT_INT64", "tensorShape": { "dim": [{ "size": "4" }] } } },
          "dtype": { "type": "DT_INT64" }
        }
      },
      {
        "name": "PartitionedCall/ExpandDims_7",
        "op": "Const",
        "attr": {
          "dtype": { "type": "DT_INT64" },
          "value": { "tensor": { "dtype": "DT_INT64", "tensorShape": { "dim": [{ "size": "1" }, { "size": "1" }] } } }
        }
      },
      {
        "name": "PartitionedCall/Cast_15",
        "op": "Const",
        "attr": {
          "dtype": { "type": "DT_INT64" },
          "value": { "tensor": { "dtype": "DT_INT64", "tensorShape": { "dim": [{ "size": "1" }] } } }
        }
      },
      {
        "name": "PartitionedCall/SelectV2_30",
        "op": "Const",
        "attr": {
          "dtype": { "type": "DT_INT64" },
          "value": { "tensor": { "dtype": "DT_INT64", "tensorShape": { "dim": [{ "size": "1" }] } } }
        }
      },
      {
        "name": "PartitionedCall/Const_39",
        "op": "Const",
        "attr": { "dtype": { "type": "DT_INT64" }, "value": { "tensor": { "dtype": "DT_INT64", "tensorShape": {} } } }
      },
      {
        "name": "PartitionedCall/ones_7",
        "op": "Const",
        "attr": {
          "dtype": { "type": "DT_INT64" },
          "value": { "tensor": { "dtype": "DT_INT64", "tensorShape": { "dim": [{ "size": "4" }] } } }
        }
      },
      {
        "name": "PartitionedCall/Const_41",
        "op": "Const",
        "attr": {
          "dtype": { "type": "DT_INT32" },
          "value": { "tensor": { "dtype": "DT_INT32", "tensorShape": { "dim": [{ "size": "4" }, { "size": "2" }] } } }
        }
      },
      {
        "name": "PartitionedCall/transpose_97/perm",
        "op": "Const",
        "attr": {
          "value": { "tensor": { "dtype": "DT_INT32", "tensorShape": { "dim": [{ "size": "4" }] } } },
          "dtype": { "type": "DT_INT32" }
        }
      },
      {
        "name": "PartitionedCall/split_32",
        "op": "Const",
        "attr": {
          "dtype": { "type": "DT_FLOAT" },
          "value": {
            "tensor": {
              "dtype": "DT_FLOAT",
              "tensorShape": { "dim": [{ "size": "3" }, { "size": "3" }, { "size": "288" }, { "size": "288" }] }
            }
          }
        }
      },
      {
        "name": "unknown_72",
        "op": "Const",
        "attr": {
          "dtype": { "type": "DT_FLOAT" },
          "value": { "tensor": { "dtype": "DT_FLOAT", "tensorShape": { "dim": [{ "size": "288" }] } } }
        }
      },
      {
        "name": "PartitionedCall/transpose_98/perm",
        "op": "Const",
        "attr": {
          "value": { "tensor": { "dtype": "DT_INT32", "tensorShape": { "dim": [{ "size": "4" }] } } },
          "dtype": { "type": "DT_INT32" }
        }
      },
      {
        "name": "PartitionedCall/Const_42",
        "op": "Const",
        "attr": {
          "dtype": { "type": "DT_INT32" },
          "value": { "tensor": { "dtype": "DT_INT32", "tensorShape": { "dim": [{ "size": "4" }, { "size": "2" }] } } }
        }
      },
      {
        "name": "PartitionedCall/transpose_100/perm",
        "op": "Const",
        "attr": {
          "dtype": { "type": "DT_INT32" },
          "value": { "tensor": { "dtype": "DT_INT32", "tensorShape": { "dim": [{ "size": "4" }] } } }
        }
      },
      {
        "name": "PartitionedCall/split_33",
        "op": "Const",
        "attr": {
          "value": {
            "tensor": {
              "dtype": "DT_FLOAT",
              "tensorShape": { "dim": [{ "size": "3" }, { "size": "3" }, { "size": "288" }, { "size": "288" }] }
            }
          },
          "dtype": { "type": "DT_FLOAT" }
        }
      },
      {
        "name": "unknown_74",
        "op": "Const",
        "attr": {
          "dtype": { "type": "DT_FLOAT" },
          "value": { "tensor": { "dtype": "DT_FLOAT", "tensorShape": { "dim": [{ "size": "288" }] } } }
        }
      },
      {
        "name": "PartitionedCall/transpose_101/perm",
        "op": "Const",
        "attr": {
          "value": { "tensor": { "dtype": "DT_INT32", "tensorShape": { "dim": [{ "size": "4" }] } } },
          "dtype": { "type": "DT_INT32" }
        }
      },
      {
        "name": "PartitionedCall/Const_43",
        "op": "Const",
        "attr": {
          "value": { "tensor": { "dtype": "DT_INT32", "tensorShape": { "dim": [{ "size": "4" }, { "size": "2" }] } } },
          "dtype": { "type": "DT_INT32" }
        }
      },
      {
        "name": "PartitionedCall/transpose_103/perm",
        "op": "Const",
        "attr": {
          "dtype": { "type": "DT_INT32" },
          "value": { "tensor": { "dtype": "DT_INT32", "tensorShape": { "dim": [{ "size": "4" }] } } }
        }
      },
      {
        "name": "PartitionedCall/split_34",
        "op": "Const",
        "attr": {
          "value": {
            "tensor": {
              "dtype": "DT_FLOAT",
              "tensorShape": { "dim": [{ "size": "3" }, { "size": "3" }, { "size": "288" }, { "size": "288" }] }
            }
          },
          "dtype": { "type": "DT_FLOAT" }
        }
      },
      {
        "name": "unknown_76",
        "op": "Const",
        "attr": {
          "value": { "tensor": { "dtype": "DT_FLOAT", "tensorShape": { "dim": [{ "size": "288" }] } } },
          "dtype": { "type": "DT_FLOAT" }
        }
      },
      {
        "name": "PartitionedCall/transpose_104/perm",
        "op": "Const",
        "attr": {
          "dtype": { "type": "DT_INT32" },
          "value": { "tensor": { "dtype": "DT_INT32", "tensorShape": { "dim": [{ "size": "4" }] } } }
        }
      },
      {
        "name": "PartitionedCall/Const_44",
        "op": "Const",
        "attr": {
          "dtype": { "type": "DT_INT32" },
          "value": { "tensor": { "dtype": "DT_INT32", "tensorShape": { "dim": [{ "size": "4" }, { "size": "2" }] } } }
        }
      },
      {
        "name": "PartitionedCall/transpose_106/perm",
        "op": "Const",
        "attr": {
          "dtype": { "type": "DT_INT32" },
          "value": { "tensor": { "dtype": "DT_INT32", "tensorShape": { "dim": [{ "size": "4" }] } } }
        }
      },
      {
        "name": "PartitionedCall/split_35",
        "op": "Const",
        "attr": {
          "dtype": { "type": "DT_FLOAT" },
          "value": {
            "tensor": {
              "dtype": "DT_FLOAT",
              "tensorShape": { "dim": [{ "size": "3" }, { "size": "3" }, { "size": "288" }, { "size": "288" }] }
            }
          }
        }
      },
      {
        "name": "unknown_78",
        "op": "Const",
        "attr": {
          "dtype": { "type": "DT_FLOAT" },
          "value": { "tensor": { "dtype": "DT_FLOAT", "tensorShape": { "dim": [{ "size": "288" }] } } }
        }
      },
      {
        "name": "PartitionedCall/transpose_107/perm",
        "op": "Const",
        "attr": {
          "value": { "tensor": { "dtype": "DT_INT32", "tensorShape": { "dim": [{ "size": "4" }] } } },
          "dtype": { "type": "DT_INT32" }
        }
      },
      {
        "name": "PartitionedCall/onnx_tf_prefix_/model.8/Concat/axis",
        "op": "Const",
        "attr": { "value": { "tensor": { "dtype": "DT_INT32", "tensorShape": {} } }, "dtype": { "type": "DT_INT32" } }
      },
      {
        "name": "PartitionedCall/transpose_109/perm",
        "op": "Const",
        "attr": {
          "value": { "tensor": { "dtype": "DT_INT32", "tensorShape": { "dim": [{ "size": "4" }] } } },
          "dtype": { "type": "DT_INT32" }
        }
      },
      {
        "name": "PartitionedCall/split_36",
        "op": "Const",
        "attr": {
          "dtype": { "type": "DT_FLOAT" },
          "value": {
            "tensor": {
              "dtype": "DT_FLOAT",
              "tensorShape": { "dim": [{ "size": "1" }, { "size": "1" }, { "size": "1152" }, { "size": "576" }] }
            }
          }
        }
      },
      {
        "name": "unknown_80",
        "op": "Const",
        "attr": {
          "dtype": { "type": "DT_FLOAT" },
          "value": { "tensor": { "dtype": "DT_FLOAT", "tensorShape": { "dim": [{ "size": "576" }] } } }
        }
      },
      {
        "name": "PartitionedCall/transpose_110/perm",
        "op": "Const",
        "attr": {
          "dtype": { "type": "DT_INT32" },
          "value": { "tensor": { "dtype": "DT_INT32", "tensorShape": { "dim": [{ "size": "4" }] } } }
        }
      },
      {
        "name": "PartitionedCall/transpose_112/perm",
        "op": "Const",
        "attr": {
          "value": { "tensor": { "dtype": "DT_INT32", "tensorShape": { "dim": [{ "size": "4" }] } } },
          "dtype": { "type": "DT_INT32" }
        }
      },
      {
        "name": "PartitionedCall/split_37",
        "op": "Const",
        "attr": {
          "value": {
            "tensor": {
              "dtype": "DT_FLOAT",
              "tensorShape": { "dim": [{ "size": "1" }, { "size": "1" }, { "size": "576" }, { "size": "288" }] }
            }
          },
          "dtype": { "type": "DT_FLOAT" }
        }
      },
      {
        "name": "unknown_82",
        "op": "Const",
        "attr": {
          "dtype": { "type": "DT_FLOAT" },
          "value": { "tensor": { "dtype": "DT_FLOAT", "tensorShape": { "dim": [{ "size": "288" }] } } }
        }
      },
      {
…
        { "name": "PartitionedCall/SelectV2_74", "shape": [1], "dtype": "int32" },
        { "name": "PartitionedCall/Const_104", "shape": [], "dtype": "int32" },
        { "name": "PartitionedCall/ones_16", "shape": [3], "dtype": "int32" },
        { "name": "PartitionedCall/onnx_tf_prefix_/model.22/Concat_4/axis", "shape": [], "dtype": "int32" },
        { "name": "unknown_184", "shape": [1, 5376], "dtype": "float32" },
        { "name": "PartitionedCall/Const_64", "shape": [4, 2], "dtype": "int32" },
        { "name": "PartitionedCall/transpose_167/perm", "shape": [4], "dtype": "int32" },
        { "name": "PartitionedCall/split_52", "shape": [3, 3, 192, 64], "dtype": "float32" },
        { "name": "unknown_113", "shape": [64], "dtype": "float32" },
        { "name": "PartitionedCall/transpose_168/perm", "shape": [4], "dtype": "int32" },
        { "name": "PartitionedCall/Const_66", "shape": [4, 2], "dtype": "int32" },
        { "name": "PartitionedCall/transpose_173/perm", "shape": [4], "dtype": "int32" },
        { "name": "PartitionedCall/split_54", "shape": [3, 3, 64, 64], "dtype": "float32" },
        { "name": "unknown_117", "shape": [64], "dtype": "float32" },
        { "name": "PartitionedCall/transpose_174/perm", "shape": [4], "dtype": "int32" },
        { "name": "PartitionedCall/transpose_182/perm", "shape": [4], "dtype": "int32" },
        { "name": "PartitionedCall/split_57", "shape": [1, 1, 64, 64], "dtype": "float32" },
        { "name": "unknown_123", "shape": [64], "dtype": "float32" },
        { "name": "PartitionedCall/transpose_183/perm", "shape": [4], "dtype": "int32" },
        { "name": "PartitionedCall/Const_65", "shape": [4, 2], "dtype": "int32" },
        { "name": "PartitionedCall/transpose_170/perm", "shape": [4], "dtype": "int32" },
        { "name": "PartitionedCall/split_53", "shape": [3, 3, 192, 192], "dtype": "float32" },
        { "name": "unknown_115", "shape": [192], "dtype": "float32" },
        { "name": "PartitionedCall/transpose_171/perm", "shape": [4], "dtype": "int32" },
        { "name": "PartitionedCall/Const_67", "shape": [4, 2], "dtype": "int32" },
        { "name": "PartitionedCall/transpose_176/perm", "shape": [4], "dtype": "int32" },
        { "name": "PartitionedCall/split_55", "shape": [3, 3, 192, 192], "dtype": "float32" },
        { "name": "unknown_119", "shape": [192], "dtype": "float32" },
        { "name": "PartitionedCall/transpose_177/perm", "shape": [4], "dtype": "int32" },
        { "name": "PartitionedCall/transpose_185/perm", "shape": [4], "dtype": "int32" },
        { "name": "PartitionedCall/split_58", "shape": [1, 1, 192, 11], "dtype": "float32" },
        { "name": "unknown_125", "shape": [11], "dtype": "float32" },
        { "name": "PartitionedCall/transpose_186/perm", "shape": [4], "dtype": "int32" },
        { "name": "PartitionedCall/onnx_tf_prefix_/model.22/Concat/axis", "shape": [], "dtype": "int32" },
        { "name": "PartitionedCall/Where", "shape": [0, 1], "dtype": "int32" },
        { "name": "PartitionedCall/Cast_32", "shape": [1], "dtype": "int32" },
        { "name": "PartitionedCall/GatherV2", "shape": [0], "dtype": "int32" },
        { "name": "PartitionedCall/zeros_14", "shape": [], "dtype": "int32" },
        { "name": "PartitionedCall/Const_78", "shape": [4, 2], "dtype": "int32" },
        { "name": "PartitionedCall/transpose_206/perm", "shape": [4], "dtype": "int32" },
        { "name": "PartitionedCall/split_65", "shape": [3, 3, 384, 64], "dtype": "float32" },
        { "name": "unknown_140", "shape": [64], "dtype": "float32" },
        { "name": "PartitionedCall/transpose_207/perm", "shape": [4], "dtype": "int32" },
        { "name": "PartitionedCall/Const_80", "shape": [4, 2], "dtype": "int32" },
        { "name": "PartitionedCall/transpose_212/perm", "shape": [4], "dtype": "int32" },
        { "name": "PartitionedCall/split_67", "shape": [3, 3, 64, 64], "dtype": "float32" },
        { "name": "unknown_144", "shape": [64], "dtype": "float32" },
        { "name": "PartitionedCall/transpose_213/perm", "shape": [4], "dtype": "int32" },
        { "name": "PartitionedCall/transpose_221/perm", "shape": [4], "dtype": "int32" },
        { "name": "PartitionedCall/split_70", "shape": [1, 1, 64, 64], "dtype": "float32" },
        { "name": "unknown_150", "shape": [64], "dtype": "float32" },
        { "name": "PartitionedCall/transpose_222/perm", "shape": [4], "dtype": "int32" },
        { "name": "PartitionedCall/Const_79", "shape": [4, 2], "dtype": "int32" },
        { "name": "PartitionedCall/transpose_209/perm", "shape": [4], "dtype": "int32" },
        { "name": "PartitionedCall/split_66", "shape": [3, 3, 384, 192], "dtype": "float32" },
        { "name": "unknown_142", "shape": [192], "dtype": "float32" },
        { "name": "PartitionedCall/transpose_210/perm", "shape": [4], "dtype": "int32" },
        { "name": "PartitionedCall/Const_81", "shape": [4, 2], "dtype": "int32" },
        { "name": "PartitionedCall/transpose_215/perm", "shape": [4], "dtype": "int32" },
        { "name": "PartitionedCall/split_68", "shape": [3, 3, 192, 192], "dtype": "float32" },
        { "name": "unknown_146", "shape": [192], "dtype": "float32" },
        { "name": "PartitionedCall/transpose_216/perm", "shape": [4], "dtype": "int32" },
        { "name": "PartitionedCall/transpose_224/perm", "shape": [4], "dtype": "int32" },
        { "name": "PartitionedCall/split_71", "shape": [1, 1, 192, 11], "dtype": "float32" },
        { "name": "unknown_152", "shape": [11], "dtype": "float32" },
        { "name": "PartitionedCall/transpose_225/perm", "shape": [4], "dtype": "int32" },
        { "name": "PartitionedCall/onnx_tf_prefix_/model.22/Concat_1/axis", "shape": [], "dtype": "int32" },
        { "name": "PartitionedCall/Where_1", "shape": [0, 1], "dtype": "int32" },
        { "name": "PartitionedCall/Cast_37", "shape": [1], "dtype": "int32" },
        { "name": "PartitionedCall/GatherV2_1", "shape": [0], "dtype": "int32" },
        { "name": "PartitionedCall/zeros_17", "shape": [], "dtype": "int32" },
        { "name": "PartitionedCall/Const_91", "shape": [4, 2], "dtype": "int32" },
        { "name": "PartitionedCall/transpose_242/perm", "shape": [4], "dtype": "int32" },
        { "name": "PartitionedCall/split_77", "shape": [3, 3, 576, 64], "dtype": "float32" },
        { "name": "unknown_164", "shape": [64], "dtype": "float32" },
        { "name": "PartitionedCall/transpose_243/perm", "shape": [4], "dtype": "int32" },
        { "name": "PartitionedCall/Const_93", "shape": [4, 2], "dtype": "int32" },
        { "name": "PartitionedCall/transpose_248/perm", "shape": [4], "dtype": "int32" },
        { "name": "PartitionedCall/split_79", "shape": [3, 3, 64, 64], "dtype": "float32" },
        { "name": "unknown_168", "shape": [64], "dtype": "float32" },
        { "name": "PartitionedCall/transpose_249/perm", "shape": [4], "dtype": "int32" },
        { "name": "PartitionedCall/transpose_254/perm", "shape": [4], "dtype": "int32" },
        { "name": "PartitionedCall/split_81", "shape": [1, 1, 64, 64], "dtype": "float32" },
        { "name": "unknown_172", "shape": [64], "dtype": "float32" },
        { "name": "PartitionedCall/transpose_255/perm", "shape": [4], "dtype": "int32" },
        { "name": "PartitionedCall/SelectV2_57", "shape": [1], "dtype": "int32" },
        { "name": "PartitionedCall/zeros_15", "shape": [], "dtype": "int32" },
        { "name": "PartitionedCall/Const_83", "shape": [], "dtype": "int32" },
        { "name": "PartitionedCall/Shape_16", "shape": [4], "dtype": "int32" },
        { "name": "PartitionedCall/ExpandDims_14", "shape": [1, 1], "dtype": "int32" },
        { "name": "PartitionedCall/Cast_34", "shape": [1], "dtype": "int32" },
        { "name": "PartitionedCall/SelectV2_58", "shape": [1], "dtype": "int32" },
        { "name": "PartitionedCall/Const_82", "shape": [], "dtype": "int32" },
        { "name": "PartitionedCall/ones_14", "shape": [4], "dtype": "int32" },
        { "name": "PartitionedCall/SelectV2_49", "shape": [1], "dtype": "int32" },
        { "name": "PartitionedCall/zeros_12", "shape": [], "dtype": "int32" },
        { "name": "PartitionedCall/Const_69", "shape": [], "dtype": "int32" },
        { "name": "PartitionedCall/Shape_12", "shape": [4], "dtype": "int32" },
        { "name": "PartitionedCall/ExpandDims_12", "shape": [1, 1], "dtype": "int32" },
        { "name": "PartitionedCall/Cast_29", "shape": [1], "dtype": "int32" },
        { "name": "PartitionedCall/SelectV2_50", "shape": [1], "dtype": "int32" },
        { "name": "PartitionedCall/Const_68", "shape": [], "dtype": "int32" },
        { "name": "PartitionedCall/ones_12", "shape": [4], "dtype": "int32" },
        { "name": "PartitionedCall/SelectV2_41", "shape": [1], "dtype": "int32" },
        { "name": "PartitionedCall/zeros_10", "shape": [], "dtype": "int32" },
        { "name": "PartitionedCall/Const_56", "shape": [], "dtype": "int32" },
        { "name": "PartitionedCall/Shape_10", "shape": [4], "dtype": "int32" },
        { "name": "PartitionedCall/ExpandDims_10", "shape": [1, 1], "dtype": "int32" },
        { "name": "PartitionedCall/Cast_25", "shape": [1], "dtype": "int32" },
        { "name": "PartitionedCall/SelectV2_42", "shape": [1], "dtype": "int32" },
        { "name": "PartitionedCall/Const_55", "shape": [], "dtype": "int32" },
        { "name": "PartitionedCall/ones_10", "shape": [4], "dtype": "int32" },
        { "name": "PartitionedCall/transpose_143/perm", "shape": [4], "dtype": "int32" },
        { "name": "PartitionedCall/Cast_23", "shape": [2], "dtype": "int32" },
        { "name": "PartitionedCall/transpose_144/perm", "shape": [4], "dtype": "int32" },
        { "name": "PartitionedCall/onnx_tf_prefix_/model.14/Concat/axis", "shape": [], "dtype": "int32" },
        { "name": "PartitionedCall/transpose_146/perm", "shape": [4], "dtype": "int32" },
        { "name": "PartitionedCall/split_45", "shape": [1, 1, 576, 192], "dtype": "float32" },
        { "name": "unknown_99", "shape": [192], "dtype": "float32" },
        { "name": "PartitionedCall/transpose_147/perm", "shape": [4], "dtype": "int32" },
        { "name": "PartitionedCall/SelectV2_45", "shape": [1], "dtype": "int32" },
        { "name": "PartitionedCall/zeros_11", "shape": [], "dtype": "int32" },
        { "name": "PartitionedCall/Const_58", "shape": [], "dtype": "int32" },
        { "name": "PartitionedCall/Shape_11", "shape": [4], "dtype": "int32" },
        { "name": "PartitionedCall/ExpandDims_11", "shape": [1, 1], "dtype": "int32" },
        { "name": "PartitionedCall/Cast_27", "shape": [1], "dtype": "int32" },
        { "name": "PartitionedCall/SelectV2_46", "shape": [1], "dtype": "int32" },
        { "name": "PartitionedCall/Const_57", "shape": [], "dtype": "int32" },
        { "name": "PartitionedCall/ones_11", "shape": [4], "dtype": "int32" },
        { "name": "PartitionedCall/Const_59", "shape": [4, 2], "dtype": "int32" },
        { "name": "PartitionedCall/transpose_149/perm", "shape": [4], "dtype": "int32" },
        { "name": "PartitionedCall/split_46", "shape": [3, 3, 96, 96], "dtype": "float32" },
        { "name": "unknown_101", "shape": [96], "dtype": "float32" },
        { "name": "PartitionedCall/transpose_150/perm", "shape": [4], "dtype": "int32" },
        { "name": "PartitionedCall/Const_60", "shape": [4, 2], "dtype": "int32" },
        { "name": "PartitionedCall/transpose_152/perm", "shape": [4], "dtype": "int32" },
        { "name": "PartitionedCall/split_47", "shape": [3, 3, 96, 96], "dtype": "float32" },
        { "name": "unknown_103", "shape": [96], "dtype": "float32" },
        { "name": "PartitionedCall/transpose_153/perm", "shape": [4], "dtype": "int32" },
        { "name": "PartitionedCall/Const_61", "shape": [4, 2], "dtype": "int32" },
        { "name": "PartitionedCall/transpose_155/perm", "shape": [4], "dtype": "int32" },
        { "name": "PartitionedCall/split_48", "shape": [3, 3, 96, 96], "dtype": "float32" },
        { "name": "unknown_105", "shape": [96], "dtype": "float32" },
        { "name": "PartitionedCall/transpose_156/perm", "shape": [4], "dtype": "int32" },
        { "name": "PartitionedCall/Const_62", "shape": [4, 2], "dtype": "int32" },
        { "name": "PartitionedCall/transpose_158/perm", "shape": [4], "dtype": "int32" },
        { "name": "PartitionedCall/split_49", "shape": [3, 3, 96, 96], "dtype": "float32" },
        { "name": "unknown_107", "shape": [96], "dtype": "float32" },
        { "name": "PartitionedCall/transpose_159/perm", "shape": [4], "dtype": "int32" },
        { "name": "PartitionedCall/onnx_tf_prefix_/model.15/Concat/axis", "shape": [], "dtype": "int32" },
        { "name": "PartitionedCall/transpose_161/perm", "shape": [4], "dtype": "int32" },
        { "name": "PartitionedCall/split_50", "shape": [1, 1, 384, 192], "dtype": "float32" },
        { "name": "unknown_109", "shape": [192], "dtype": "float32" },
        { "name": "PartitionedCall/transpose_162/perm", "shape": [4], "dtype": "int32" },
        { "name": "PartitionedCall/Const_63", "shape": [4, 2], "dtype": "int32" },
        { "name": "PartitionedCall/transpose_164/perm", "shape": [4], "dtype": "int32" },
        { "name": "PartitionedCall/split_51", "shape": [3, 3, 192, 192], "dtype": "float32" },
        { "name": "unknown_111", "shape": [192], "dtype": "float32" },
        { "name": "PartitionedCall/transpose_165/perm", "shape": [4], "dtype": "int32" },
        { "name": "PartitionedCall/SelectV2_33", "shape": [1], "dtype": "int32" },
        { "name": "PartitionedCall/zeros_8", "shape": [], "dtype": "int32" },
        { "name": "PartitionedCall/Const_47", "shape": [], "dtype": "int32" },
        { "name": "PartitionedCall/Shape_8", "shape": [4], "dtype": "int32" },
        { "name": "PartitionedCall/ExpandDims_8", "shape": [1, 1], "dtype": "int32" },
        { "name": "PartitionedCall/Cast_19", "shape": [1], "dtype": "int32" },
        { "name": "PartitionedCall/SelectV2_34", "shape": [1], "dtype": "int32" },
        { "name": "PartitionedCall/Const_46", "shape": [], "dtype": "int32" },
        { "name": "PartitionedCall/ones_8", "shape": [4], "dtype": "int32" },
        { "name": "PartitionedCall/transpose_123/perm", "shape": [4], "dtype": "int32" },
        { "name": "PartitionedCall/Cast_17", "shape": [2], "dtype": "int32" },
        { "name": "PartitionedCall/transpose_124/perm", "shape": [4], "dtype": "int32" },
        { "name": "PartitionedCall/onnx_tf_prefix_/model.11/Concat/axis", "shape": [], "dtype": "int32" },
        { "name": "PartitionedCall/transpose_126/perm", "shape": [4], "dtype": "int32" },
        { "name": "PartitionedCall/split_39", "shape": [1, 1, 960, 384], "dtype": "float32" },
        { "name": "unknown_87", "shape": [384], "dtype": "float32" },
        { "name": "PartitionedCall/transpose_127/perm", "shape": [4], "dtype": "int32" },
        { "name": "PartitionedCall/SelectV2_37", "shape": [1], "dtype": "int32" },
        { "name": "PartitionedCall/zeros_9", "shape": [], "dtype": "int32" },
        { "name": "PartitionedCall/Const_49", "shape": [], "dtype": "int32" },
        { "name": "PartitionedCall/Shape_9", "shape": [4], "dtype": "int32" },
        { "name": "PartitionedCall/ExpandDims_9", "shape": [1, 1], "dtype": "int32" },
        { "name": "PartitionedCall/Cast_21", "shape": [1], "dtype": "int32" },
        { "name": "PartitionedCall/SelectV2_38", "shape": [1], "dtype": "int32" },
        { "name": "PartitionedCall/Const_48", "shape": [], "dtype": "int32" },
        { "name": "PartitionedCall/ones_9", "shape": [4], "dtype": "int32" },
        { "name": "PartitionedCall/Const_50", "shape": [4, 2], "dtype": "int32" },
        { "name": "PartitionedCall/transpose_129/perm", "shape": [4], "dtype": "int32" },
        { "name": "PartitionedCall/split_40", "shape": [3, 3, 192, 192], "dtype": "float32" },
        { "name": "unknown_89", "shape": [192], "dtype": "float32" },
        { "name": "PartitionedCall/transpose_130/perm", "shape": [4], "dtype": "int32" },
        { "name": "PartitionedCall/Const_51", "shape": [4, 2], "dtype": "int32" },
        { "name": "PartitionedCall/transpose_132/perm", "shape": [4], "dtype": "int32" },
        { "name": "PartitionedCall/split_41", "shape": [3, 3, 192, 192], "dtype": "float32" },
        { "name": "unknown_91", "shape": [192], "dtype": "float32" },
        { "name": "PartitionedCall/transpose_133/perm", "shape": [4], "dtype": "int32" },
        { "name": "PartitionedCall/Const_52", "shape": [4, 2], "dtype": "int32" },
        { "name": "PartitionedCall/transpose_135/perm", "shape": [4], "dtype": "int32" },
        { "name": "PartitionedCall/split_42", "shape": [3, 3, 192, 192], "dtype": "float32" },
        { "name": "unknown_93", "shape": [192], "dtype": "float32" },
        { "name": "PartitionedCall/transpose_136/perm", "shape": [4], "dtype": "int32" },
        { "name": "PartitionedCall/Const_53", "shape": [4, 2], "dtype": "int32" },
        { "name": "PartitionedCall/transpose_138/perm", "shape": [4], "dtype": "int32" },
        { "name": "PartitionedCall/split_43", "shape": [3, 3, 192, 192], "dtype": "float32" },
        { "name": "unknown_95", "shape": [192], "dtype": "float32" },
        { "name": "PartitionedCall/transpose_139/perm", "shape": [4], "dtype": "int32" },
        { "name": "PartitionedCall/onnx_tf_prefix_/model.12/Concat/axis", "shape": [], "dtype": "int32" },
        { "name": "PartitionedCall/transpose_141/perm", "shape": [4], "dtype": "int32" },
        { "name": "PartitionedCall/split_44", "shape": [1, 1, 768, 384], "dtype": "float32" },
        { "name": "unknown_97", "shape": [384], "dtype": "float32" },
        { "name": "PartitionedCall/transpose_142/perm", "shape": [4], "dtype": "int32" },
        { "name": "PartitionedCall/onnx_tf_prefix_/model.17/Concat/axis", "shape": [], "dtype": "int32" },
        { "name": "PartitionedCall/transpose_179/perm", "shape": [4], "dtype": "int32" },
        { "name": "PartitionedCall/split_56", "shape": [1, 1, 576, 384], "dtype": "float32" },
        { "name": "unknown_121", "shape": [384], "dtype": "float32" },
        { "name": "PartitionedCall/transpose_180/perm", "shape": [4], "dtype": "int32" },
        { "name": "PartitionedCall/SelectV2_53", "shape": [1], "dtype": "int32" },
        { "name": "PartitionedCall/zeros_13", "shape": [], "dtype": "int32" },
        { "name": "PartitionedCall/Const_71", "shape": [], "dtype": "int32" },
        { "name": "PartitionedCall/Shape_13", "shape": [4], "dtype": "int32" },
        { "name": "PartitionedCall/ExpandDims_13", "shape": [1, 1], "dtype": "int32" },
        { "name": "PartitionedCall/Cast_31", "shape": [1], "dtype": "int32" },
        { "name": "PartitionedCall/SelectV2_54", "shape": [1], "dtype": "int32" },
        { "name": "PartitionedCall/Const_70", "shape": [], "dtype": "int32" },
        { "name": "PartitionedCall/ones_13", "shape": [4], "dtype": "int32" },
        { "name": "PartitionedCall/Const_72", "shape": [4, 2], "dtype": "int32" },
        { "name": "PartitionedCall/transpose_188/perm", "shape": [4], "dtype": "int32" },
        { "name": "PartitionedCall/split_59", "shape": [3, 3, 192, 192], "dtype": "float32" },
        { "name": "unknown_127", "shape": [192], "dtype": "float32" },
        { "name": "PartitionedCall/transpose_189/perm", "shape": [4], "dtype": "int32" },
        { "name": "PartitionedCall/Const_74", "shape": [4, 2], "dtype": "int32" },
        { "name": "PartitionedCall/transpose_191/perm", "shape": [4], "dtype": "int32" },
        { "name": "PartitionedCall/split_60", "shape": [3, 3, 192, 192], "dtype": "float32" },
        { "name": "unknown_130", "shape": [192], "dtype": "float32" },
        { "name": "PartitionedCall/transpose_192/perm", "shape": [4], "dtype": "int32" },
        { "name": "PartitionedCall/Const_75", "shape": [4, 2], "dtype": "int32" },
        { "name": "PartitionedCall/transpose_194/perm", "shape": [4], "dtype": "int32" },
        { "name": "PartitionedCall/split_61", "shape": [3, 3, 192, 192], "dtype": "float32" },
        { "name": "unknown_132", "shape": [192], "dtype": "float32" },
        { "name": "PartitionedCall/transpose_195/perm", "shape": [4], "dtype": "int32" },
        { "name": "PartitionedCall/Const_76", "shape": [4, 2], "dtype": "int32" },
        { "name": "PartitionedCall/transpose_197/perm", "shape": [4], "dtype": "int32" },
        { "name": "PartitionedCall/split_62", "shape": [3, 3, 192, 192], "dtype": "float32" },
        { "name": "unknown_134", "shape": [192], "dtype": "float32" },
        { "name": "PartitionedCall/transpose_198/perm", "shape": [4], "dtype": "int32" },
        { "name": "PartitionedCall/onnx_tf_prefix_/model.18/Concat/axis", "shape": [], "dtype": "int32" },
        { "name": "PartitionedCall/transpose_200/perm", "shape": [4], "dtype": "int32" },
        { "name": "PartitionedCall/split_63", "shape": [1, 1, 768, 384], "dtype": "float32" },
        { "name": "unknown_136", "shape": [384], "dtype": "float32" },
        { "name": "PartitionedCall/transpose_201/perm", "shape": [4], "dtype": "int32" },
        { "name": "PartitionedCall/Const_77", "shape": [4, 2], "dtype": "int32" },
        { "name": "PartitionedCall/transpose_203/perm", "shape": [4], "dtype": "int32" },
        { "name": "PartitionedCall/split_64", "shape": [3, 3, 384, 384], "dtype": "float32" },
        { "name": "unknown_138", "shape": [384], "dtype": "float32" },
        { "name": "PartitionedCall/transpose_204/perm", "shape": [4], "dtype": "int32" },
        { "name": "PartitionedCall/transpose_115/perm", "shape": [4], "dtype": "int32" },
        { "name": "PartitionedCall/transpose_117/perm", "shape": [4], "dtype": "int32" },
        { "name": "PartitionedCall/SelectV2_25", "shape": [1], "dtype": "int32" },
        { "name": "PartitionedCall/zeros_6", "shape": [], "dtype": "int32" },
        { "name": "PartitionedCall/Const_38", "shape": [], "dtype": "int32" },
        { "name": "PartitionedCall/Shape_6", "shape": [4], "dtype": "int32" },
        { "name": "PartitionedCall/ExpandDims_6", "shape": [1, 1], "dtype": "int32" },
        { "name": "PartitionedCall/Cast_13", "shape": [1], "dtype": "int32" },
        { "name": "PartitionedCall/SelectV2_26", "shape": [1], "dtype": "int32" },
        { "name": "PartitionedCall/Const_37", "shape": [], "dtype": "int32" },
        { "name": "PartitionedCall/ones_6", "shape": [4], "dtype": "int32" },
        { "name": "PartitionedCall/SelectV2_17", "shape": [1], "dtype": "int32" },
        { "name": "PartitionedCall/zeros_4", "shape": [], "dtype": "int32" },
        { "name": "PartitionedCall/Const_25", "shape": [], "dtype": "int32" },
        { "name": "PartitionedCall/Shape_4", "shape": [4], "dtype": "int32" },
        { "name": "PartitionedCall/ExpandDims_4", "shape": [1, 1], "dtype": "int32" },
        { "name": "PartitionedCall/Cast_9", "shape": [1], "dtype": "int32" },
        { "name": "PartitionedCall/SelectV2_18", "shape": [1], "dtype": "int32" },
        { "name": "PartitionedCall/Const_24", "shape": [], "dtype": "int32" },
        { "name": "PartitionedCall/ones_4", "shape": [4], "dtype": "int32" },
        { "name": "PartitionedCall/SelectV2_9", "shape": [1], "dtype": "int32" },
        { "name": "PartitionedCall/zeros_2", "shape": [], "dtype": "int32" },
        { "name": "PartitionedCall/Const_12", "shape": [], "dtype": "int32" },
        { "name": "PartitionedCall/Shape_2", "shape": [4], "dtype": "int32" },
        { "name": "PartitionedCall/ExpandDims_2", "shape": [1, 1], "dtype": "int32" },
        { "name": "PartitionedCall/Cast_5", "shape": [1], "dtype": "int32" },
        { "name": "PartitionedCall/SelectV2_10", "shape": [1], "dtype": "int32" },
        { "name": "PartitionedCall/Const_11", "shape": [], "dtype": "int32" },
        { "name": "PartitionedCall/ones_2", "shape": [4], "dtype": "int32" },
        { "name": "PartitionedCall/SelectV2_1", "shape": [1], "dtype": "int32" },
        { "name": "PartitionedCall/zeros", "shape": [], "dtype": "int32" },
        { "name": "PartitionedCall/Const_3", "shape": [], "dtype": "int32" },
        { "name": "PartitionedCall/Shape", "shape": [4], "dtype": "int32" },
        { "name": "PartitionedCall/ExpandDims", "shape": [1, 1], "dtype": "int32" },
        { "name": "PartitionedCall/Cast_1", "shape": [1], "dtype": "int32" },
        { "name": "PartitionedCall/SelectV2_2", "shape": [1], "dtype": "int32" },
        { "name": "PartitionedCall/Const_2", "shape": [], "dtype": "int32" },
        { "name": "PartitionedCall/ones", "shape": [4], "dtype": "int32" },
        { "name": "PartitionedCall/Const", "shape": [4, 2], "dtype": "int32" },
        { "name": "PartitionedCall/transpose_1/perm", "shape": [4], "dtype": "int32" },
        { "name": "PartitionedCall/split", "shape": [3, 3, 3, 48], "dtype": "float32" },
        { "name": "unknown_0", "shape": [48], "dtype": "float32" },
        { "name": "PartitionedCall/transpose_2/perm", "shape": [4], "dtype": "int32" },
        { "name": "PartitionedCall/Const_1", "shape": [4, 2], "dtype": "int32" },
        { "name": "PartitionedCall/transpose_4/perm", "shape": [4], "dtype": "int32" },
        { "name": "PartitionedCall/split_1", "shape": [3, 3, 48, 96], "dtype": "float32" },
        { "name": "unknown_2", "shape": [96], "dtype": "float32" },
        { "name": "PartitionedCall/transpose_5/perm", "shape": [4], "dtype": "int32" },
        { "name": "PartitionedCall/transpose_7/perm", "shape": [4], "dtype": "int32" },
        { "name": "PartitionedCall/split_2", "shape": [1, 1, 96, 96], "dtype": "float32" },
        { "name": "unknown_4", "shape": [96], "dtype": "float32" },
        { "name": "PartitionedCall/transpose_8/perm", "shape": [4], "dtype": "int32" },
        { "name": "PartitionedCall/SelectV2_5", "shape": [1], "dtype": "int32" },
        { "name": "PartitionedCall/zeros_1", "shape": [], "dtype": "int32" },
        { "name": "PartitionedCall/Const_5", "shape": [], "dtype": "int32" },
        { "name": "PartitionedCall/Shape_1", "shape": [4], "dtype": "int32" },
        { "name": "PartitionedCall/ExpandDims_1", "shape": [1, 1], "dtype": "int32" },
        { "name": "PartitionedCall/Cast_3", "shape": [1], "dtype": "int32" },
        { "name": "PartitionedCall/SelectV2_6", "shape": [1], "dtype": "int32" },
        { "name": "PartitionedCall/Const_4", "shape": [], "dtype": "int32" },
        { "name": "PartitionedCall/ones_1", "shape": [4], "dtype": "int32" },
        { "name": "PartitionedCall/Const_6", "shape": [4, 2], "dtype": "int32" },
        { "name": "PartitionedCall/transpose_10/perm", "shape": [4], "dtype": "int32" },
        { "name": "PartitionedCall/split_3", "shape": [3, 3, 48, 48], "dtype": "float32" },
        { "name": "unknown_10", "shape": [48], "dtype": "float32" },
        { "name": "PartitionedCall/transpose_11/perm", "shape": [4], "dtype": "int32" },
        { "name": "PartitionedCall/Const_7", "shape": [4, 2], "dtype": "int32" },
        { "name": "PartitionedCall/transpose_13/perm", "shape": [4], "dtype": "int32" },
        { "name": "PartitionedCall/split_4", "shape": [3, 3, 48, 48], "dtype": "float32" },
        { "name": "unknown_12", "shape": [48], "dtype": "float32" },
        { "name": "PartitionedCall/transpose_14/perm", "shape": [4], "dtype": "int32" },
        { "name": "PartitionedCall/Const_8", "shape": [4, 2], "dtype": "int32" },
        { "name": "PartitionedCall/transpose_16/perm", "shape": [4], "dtype": "int32" },
        { "name": "PartitionedCall/split_5", "shape": [3, 3, 48, 48], "dtype": "float32" },
        { "name": "unknown_14", "shape": [48], "dtype": "float32" },
        { "name": "PartitionedCall/transpose_17/perm", "shape": [4], "dtype": "int32" },
        { "name": "PartitionedCall/Const_9", "shape": [4, 2], "dtype": "int32" },
        { "name": "PartitionedCall/transpose_19/perm", "shape": [4], "dtype": "int32" },
        { "name": "PartitionedCall/split_6", "shape": [3, 3, 48, 48], "dtype": "float32" },
        { "name": "unknown_16", "shape": [48], "dtype": "float32" },
        { "name": "PartitionedCall/transpose_20/perm", "shape": [4], "dtype": "int32" },
        { "name": "PartitionedCall/onnx_tf_prefix_/model.2/Concat/axis", "shape": [], "dtype": "int32" },
        { "name": "PartitionedCall/transpose_22/perm", "shape": [4], "dtype": "int32" },
        { "name": "PartitionedCall/split_7", "shape": [1, 1, 192, 96], "dtype": "float32" },
        { "name": "unknown_18", "shape": [96], "dtype": "float32" },
        { "name": "PartitionedCall/transpose_23/perm", "shape": [4], "dtype": "int32" },
        { "name": "PartitionedCall/Const_10", "shape": [4, 2], "dtype": "int32" },
        { "name": "PartitionedCall/transpose_25/perm", "shape": [4], "dtype": "int32" },
        { "name": "PartitionedCall/split_8", "shape": [3, 3, 96, 192], "dtype": "float32" },
        { "name": "unknown_20", "shape": [192], "dtype": "float32" },
        { "name": "PartitionedCall/transpose_26/perm", "shape": [4], "dtype": "int32" },
        { "name": "PartitionedCall/transpose_28/perm", "shape": [4], "dtype": "int32" },
        { "name": "PartitionedCall/split_9", "shape": [1, 1, 192, 192], "dtype": "float32" },
        { "name": "unknown_22", "shape": [192], "dtype": "float32" },
        { "name": "PartitionedCall/transpose_29/perm", "shape": [4], "dtype": "int32" },
        { "name": "PartitionedCall/SelectV2_13", "shape": [1], "dtype": "int32" },
        { "name": "PartitionedCall/zeros_3", "shape": [], "dtype": "int32" },
        { "name": "PartitionedCall/Const_14", "shape": [], "dtype": "int32" },
        { "name": "PartitionedCall/Shape_3", "shape": [4], "dtype": "int32" },
        { "name": "PartitionedCall/ExpandDims_3", "shape": [1, 1], "dtype": "int32" },
        { "name": "PartitionedCall/Cast_7", "shape": [1], "dtype": "int32" },
        { "name": "PartitionedCall/SelectV2_14", "shape": [1], "dtype": "int32" },
        { "name": "PartitionedCall/Const_13", "shape": [], "dtype": "int32" },
        { "name": "PartitionedCall/ones_3", "shape": [4], "dtype": "int32" },
        { "name": "PartitionedCall/Const_15", "shape": [4, 2], "dtype": "int32" },
        { "name": "PartitionedCall/transpose_31/perm", "shape": [4], "dtype": "int32" },
        { "name": "PartitionedCall/split_10", "shape": [3, 3, 96, 96], "dtype": "float32" },
        { "name": "unknown_25", "shape": [96], "dtype": "float32" },
        { "name": "PartitionedCall/transpose_32/perm", "shape": [4], "dtype": "int32" },
        { "name": "PartitionedCall/Const_16", "shape": [4, 2], "dtype": "int32" },
        { "name": "PartitionedCall/transpose_34/perm", "shape": [4], "dtype": "int32" },
        { "name": "PartitionedCall/split_11", "shape": [3, 3, 96, 96], "dtype": "float32" },
        { "name": "unknown_27", "shape": [96], "dtype": "float32" },
        { "name": "PartitionedCall/transpose_35/perm", "shape": [4], "dtype": "int32" },
        { "name": "PartitionedCall/Const_17", "shape": [4, 2], "dtype": "int32" },
        { "name": "PartitionedCall/transpose_37/perm", "shape": [4], "dtype": "int32" },
        { "name": "PartitionedCall/split_12", "shape": [3, 3, 96, 96], "dtype": "float32" },
        { "name": "unknown_29", "shape": [96], "dtype": "float32" },
        { "name": "PartitionedCall/transpose_38/perm", "shape": [4], "dtype": "int32" },
        { "name": "PartitionedCall/Const_18", "shape": [4, 2], "dtype": "int32" },
        { "name": "PartitionedCall/transpose_40/perm", "shape": [4], "dtype": "int32" },
        { "name": "PartitionedCall/split_13", "shape": [3, 3, 96, 96], "dtype": "float32" },
        { "name": "unknown_31", "shape": [96], "dtype": "float32" },
        { "name": "PartitionedCall/transpose_41/perm", "shape": [4], "dtype": "int32" },
        { "name": "PartitionedCall/Const_19", "shape": [4, 2], "dtype": "int32" },
        { "name": "PartitionedCall/transpose_43/perm", "shape": [4], "dtype": "int32" },
        { "name": "PartitionedCall/split_14", "shape": [3, 3, 96, 96], "dtype": "float32" },
        { "name": "unknown_33", "shape": [96], "dtype": "float32" },
        { "name": "PartitionedCall/transpose_44/perm", "shape": [4], "dtype": "int32" },
        { "name": "PartitionedCall/Const_20", "shape": [4, 2], "dtype": "int32" },
        { "name": "PartitionedCall/transpose_46/perm", "shape": [4], "dtype": "int32" },
        { "name": "PartitionedCall/split_15", "shape": [3, 3, 96, 96], "dtype": "float32" },
        { "name": "unknown_35", "shape": [96], "dtype": "float32" },
        { "name": "PartitionedCall/transpose_47/perm", "shape": [4], "dtype": "int32" },
        { "name": "PartitionedCall/Const_21", "shape": [4, 2], "dtype": "int32" },
        { "name": "PartitionedCall/transpose_49/perm", "shape": [4], "dtype": "int32" },
        { "name": "PartitionedCall/split_16", "shape": [3, 3, 96, 96], "dtype": "float32" },
        { "name": "unknown_37", "shape": [96], "dtype": "float32" },
        { "name": "PartitionedCall/transpose_50/perm", "shape": [4], "dtype": "int32" },
        { "name": "PartitionedCall/Const_22", "shape": [4, 2], "dtype": "int32" },
        { "name": "PartitionedCall/transpose_52/perm", "shape": [4], "dtype": "int32" },
        { "name": "PartitionedCall/split_17", "shape": [3, 3, 96, 96], "dtype": "float32" },
        { "name": "unknown_39", "shape": [96], "dtype": "float32" },
        { "name": "PartitionedCall/transpose_53/perm", "shape": [4], "dtype": "int32" },
        { "name": "PartitionedCall/onnx_tf_prefix_/model.4/Concat/axis", "shape": [], "dtype": "int32" },
        { "name": "PartitionedCall/transpose_55/perm", "shape": [4], "dtype": "int32" },
        { "name": "PartitionedCall/split_18", "shape": [1, 1, 576, 192], "dtype": "float32" },
        { "name": "unknown_41", "shape": [192], "dtype": "float32" },
        { "name": "PartitionedCall/transpose_56/perm", "shape": [4], "dtype": "int32" },
        { "name": "PartitionedCall/Const_23", "shape": [4, 2], "dtype": "int32" },
        { "name": "PartitionedCall/transpose_58/perm", "shape": [4], "dtype": "int32" },
        { "name": "PartitionedCall/split_19", "shape": [3, 3, 192, 384], "dtype": "float32" },
        { "name": "unknown_43", "shape": [384], "dtype": "float32" },
        { "name": "PartitionedCall/transpose_59/perm", "shape": [4], "dtype": "int32" },
        { "name": "PartitionedCall/transpose_61/perm", "shape": [4], "dtype": "int32" },
        { "name": "PartitionedCall/split_20", "shape": [1, 1, 384, 384], "dtype": "float32" },
        { "name": "unknown_45", "shape": [384], "dtype": "float32" },
        { "name": "PartitionedCall/transpose_62/perm", "shape": [4], "dtype": "int32" },
        { "name": "PartitionedCall/SelectV2_21", "shape": [1], "dtype": "int32" },
        { "name": "PartitionedCall/zeros_5", "shape": [], "dtype": "int32" },
        { "name": "PartitionedCall/Const_27", "shape": [], "dtype": "int32" },
        { "name": "PartitionedCall/Shape_5", "shape": [4], "dtype": "int32" },
        { "name": "PartitionedCall/ExpandDims_5", "shape": [1, 1], "dtype": "int32" },
        { "name": "PartitionedCall/Cast_11", "shape": [1], "dtype": "int32" },
        { "name": "PartitionedCall/SelectV2_22", "shape": [1], "dtype": "int32" },
        { "name": "PartitionedCall/Const_26", "shape": [], "dtype": "int32" },
        { "name": "PartitionedCall/ones_5", "shape": [4], "dtype": "int32" },
        { "name": "PartitionedCall/Const_28", "shape": [4, 2], "dtype": "int32" },
        { "name": "PartitionedCall/transpose_64/perm", "shape": [4], "dtype": "int32" },
        { "name": "PartitionedCall/split_21", "shape": [3, 3, 192, 192], "dtype": "float32" },
        { "name": "unknown_48", "shape": [192], "dtype": "float32" },
        { "name": "PartitionedCall/transpose_65/perm", "shape": [4], "dtype": "int32" },
        { "name": "PartitionedCall/Const_29", "shape": [4, 2], "dtype": "int32" },
        { "name": "PartitionedCall/transpose_67/perm", "shape": [4], "dtype": "int32" },
        { "name": "PartitionedCall/split_22", "shape": [3, 3, 192, 192], "dtype": "float32" },
        { "name": "unknown_50", "shape": [192], "dtype": "float32" },
        { "name": "PartitionedCall/transpose_68/perm", "shape": [4], "dtype": "int32" },
        { "name": "PartitionedCall/Const_30", "shape": [4, 2], "dtype": "int32" },
        { "name": "PartitionedCall/transpose_70/perm", "shape": [4], "dtype": "int32" },
        { "name": "PartitionedCall/split_23", "shape": [3, 3, 192, 192], "dtype": "float32" },
        { "name": "unknown_52", "shape": [192], "dtype": "float32" },
        { "name": "PartitionedCall/transpose_71/perm", "shape": [4], "dtype": "int32" },
        { "name": "PartitionedCall/Const_31", "shape": [4, 2], "dtype": "int32" },
        { "name": "PartitionedCall/transpose_73/perm", "shape": [4], "dtype": "int32" },
        { "name": "PartitionedCall/split_24", "shape": [3, 3, 192, 192], "dtype": "float32" },
        { "name": "unknown_54", "shape": [192], "dtype": "float32" },
        { "name": "PartitionedCall/transpose_74/perm", "shape": [4], "dtype": "int32" },
        { "name": "PartitionedCall/Const_32", "shape": [4, 2], "dtype": "int32" },
        { "name": "PartitionedCall/transpose_76/perm", "shape": [4], "dtype": "int32" },
        { "name": "PartitionedCall/split_25", "shape": [3, 3, 192, 192], "dtype": "float32" },
        { "name": "unknown_56", "shape": [192], "dtype": "float32" },
        { "name": "PartitionedCall/transpose_77/perm", "shape": [4], "dtype": "int32" },
        { "name": "PartitionedCall/Const_33", "shape": [4, 2], "dtype": "int32" },
        { "name": "PartitionedCall/transpose_79/perm", "shape": [4], "dtype": "int32" },
        { "name": "PartitionedCall/split_26", "shape": [3, 3, 192, 192], "dtype": "float32" },
        { "name": "unknown_58", "shape": [192], "dtype": "float32" },
        { "name": "PartitionedCall/transpose_80/perm", "shape": [4], "dtype": "int32" },
        { "name": "PartitionedCall/Const_34", "shape": [4, 2], "dtype": "int32" },
        { "name": "PartitionedCall/transpose_82/perm", "shape": [4], "dtype": "int32" },
        { "name": "PartitionedCall/split_27", "shape": [3, 3, 192, 192], "dtype": "float32" },
        { "name": "unknown_60", "shape": [192], "dtype": "float32" },
        { "name": "PartitionedCall/transpose_83/perm", "shape": [4], "dtype": "int32" },
        { "name": "PartitionedCall/Const_35", "shape": [4, 2], "dtype": "int32" },
        { "name": "PartitionedCall/transpose_85/perm", "shape": [4], "dtype": "int32" },
        { "name": "PartitionedCall/split_28", "shape": [3, 3, 192, 192], "dtype": "float32" },
        { "name": "unknown_62", "shape": [192], "dtype": "float32" },
        { "name": "PartitionedCall/transpose_86/perm", "shape": [4], "dtype": "int32" },
        { "name": "PartitionedCall/onnx_tf_prefix_/model.6/Concat/axis", "shape": [], "dtype": "int32" },
        { "name": "PartitionedCall/transpose_88/perm", "shape": [4], "dtype": "int32" },
        { "name": "PartitionedCall/split_29", "shape": [1, 1, 1152, 384], "dtype": "float32" },
        { "name": "unknown_64", "shape": [384], "dtype": "float32" },
        { "name": "PartitionedCall/transpose_89/perm", "shape": [4], "dtype": "int32" },
        { "name": "PartitionedCall/Const_36", "shape": [4, 2], "dtype": "int32" },
        { "name": "PartitionedCall/transpose_91/perm", "shape": [4], "dtype": "int32" },
        { "name": "PartitionedCall/split_30", "shape": [3, 3, 384, 576], "dtype": "float32" },
        { "name": "unknown_66", "shape": [576], "dtype": "float32" },
        { "name": "PartitionedCall/transpose_92/perm", "shape": [4], "dtype": "int32" },
        { "name": "PartitionedCall/transpose_94/perm", "shape": [4], "dtype": "int32" },
        { "name": "PartitionedCall/split_31", "shape": [1, 1, 576, 576], "dtype": "float32" },
        { "name": "unknown_68", "shape": [576], "dtype": "float32" },
        { "name": "PartitionedCall/transpose_95/perm", "shape": [4], "dtype": "int32" },
        { "name": "PartitionedCall/SelectV2_29", "shape": [1], "dtype": "int32" },
        { "name": "PartitionedCall/zeros_7", "shape": [], "dtype": "int32" },
        { "name": "PartitionedCall/Const_40", "shape": [], "dtype": "int32" },
        { "name": "PartitionedCall/Shape_7", "shape": [4], "dtype": "int32" },
        { "name": "PartitionedCall/ExpandDims_7", "shape": [1, 1], "dtype": "int32" },
        { "name": "PartitionedCall/Cast_15", "shape": [1], "dtype": "int32" },
        { "name": "PartitionedCall/SelectV2_30", "shape": [1], "dtype": "int32" },
        { "name": "PartitionedCall/Const_39", "shape": [], "dtype": "int32" },
        { "name": "PartitionedCall/ones_7", "shape": [4], "dtype": "int32" },
        { "name": "PartitionedCall/Const_41", "shape": [4, 2], "dtype": "int32" },
        { "name": "PartitionedCall/transpose_97/perm", "shape": [4], "dtype": "int32" },
        { "name": "PartitionedCall/split_32", "shape": [3, 3, 288, 288], "dtype": "float32" },
        { "name": "unknown_72", "shape": [288], "dtype": "float32" },
        { "name": "PartitionedCall/transpose_98/perm", "shape": [4], "dtype": "int32" },
        { "name": "PartitionedCall/Const_42", "shape": [4, 2], "dtype": "int32" },
        { "name": "PartitionedCall/transpose_100/perm", "shape": [4], "dtype": "int32" },
        { "name": "PartitionedCall/split_33", "shape": [3, 3, 288, 288], "dtype": "float32" },
        { "name": "unknown_74", "shape": [288], "dtype": "float32" },
        { "name": "PartitionedCall/transpose_101/perm", "shape": [4], "dtype": "int32" },
        { "name": "PartitionedCall/Const_43", "shape": [4, 2], "dtype": "int32" },
        { "name": "PartitionedCall/transpose_103/perm", "shape": [4], "dtype": "int32" },
        { "name": "PartitionedCall/split_34", "shape": [3, 3, 288, 288], "dtype": "float32" },
        { "name": "unknown_76", "shape": [288], "dtype": "float32" },
        { "name": "PartitionedCall/transpose_104/perm", "shape": [4], "dtype": "int32" },
        { "name": "PartitionedCall/Const_44", "shape": [4, 2], "dtype": "int32" },
        { "name": "PartitionedCall/transpose_106/perm", "shape": [4], "dtype": "int32" },
        { "name": "PartitionedCall/split_35", "shape": [3, 3, 288, 288], "dtype": "float32" },
        { "name": "unknown_78", "shape": [288], "dtype": "float32" },
        { "name": "PartitionedCall/transpose_107/perm", "shape": [4], "dtype": "int32" },
        { "name": "PartitionedCall/onnx_tf_prefix_/model.8/Concat/axis", "shape": [], "dtype": "int32" },
        { "name": "PartitionedCall/transpose_109/perm", "shape": [4], "dtype": "int32" },
        { "name": "PartitionedCall/split_36", "shape": [1, 1, 1152, 576], "dtype": "float32" },
        { "name": "unknown_80", "shape": [576], "dtype": "float32" },
        { "name": "PartitionedCall/transpose_110/perm", "shape": [4], "dtype": "int32" },
        { "name": "PartitionedCall/transpose_112/perm", "shape": [4], "dtype": "int32" },
        { "name": "PartitionedCall/split_37", "shape": [1, 1, 576, 288], "dtype": "float32" },
        { "name": "unknown_82", "shape": [288], "dtype": "float32" },
        { "name": "PartitionedCall/transpose_113/perm", "shape": [4], "dtype": "int32" },
        { "name": "PartitionedCall/transpose_114/perm", "shape": [4], "dtype": "int32" },
        { "name": "PartitionedCall/transpose_119/perm", "shape": [4], "dtype": "int32" },
        { "name": "PartitionedCall/onnx_tf_prefix_/model.9/Concat/axis", "shape": [], "dtype": "int32" },
        { "name": "PartitionedCall/transpose_121/perm", "shape": [4], "dtype": "int32" },
        { "name": "PartitionedCall/split_38", "shape": [1, 1, 1152, 576], "dtype": "float32" },
        { "name": "unknown_84", "shape": [576], "dtype": "float32" },
        { "name": "PartitionedCall/transpose_122/perm", "shape": [4], "dtype": "int32" },
        { "name": "PartitionedCall/onnx_tf_prefix_/model.20/Concat/axis", "shape": [], "dtype": "int32" },
        { "name": "PartitionedCall/transpose_218/perm", "shape": [4], "dtype": "int32" },
        { "name": "PartitionedCall/split_69", "shape": [1, 1, 960, 576], "dtype": "float32" },
        { "name": "unknown_148", "shape": [576], "dtype": "float32" },
        { "name": "PartitionedCall/transpose_219/perm", "shape": [4], "dtype": "int32" },
        { "name": "PartitionedCall/SelectV2_61", "shape": [1], "dtype": "int32" },
        { "name": "PartitionedCall/zeros_16", "shape": [], "dtype": "int32" },
        { "name": "PartitionedCall/Const_85", "shape": [], "dtype": "int32" },
        { "name": "PartitionedCall/Shape_17", "shape": [4], "dtype": "int32" },
        { "name": "PartitionedCall/ExpandDims_15", "shape": [1, 1], "dtype": "int32" },
        { "name": "PartitionedCall/Cast_36", "shape": [1], "dtype": "int32" },
        { "name": "PartitionedCall/SelectV2_62", "shape": [1], "dtype": "int32" },
        { "name": "PartitionedCall/Const_84", "shape": [], "dtype": "int32" },
        { "name": "PartitionedCall/ones_15", "shape": [4], "dtype": "int32" },
        { "name": "PartitionedCall/Const_86", "shape": [4, 2], "dtype": "int32" },
        { "name": "PartitionedCall/transpose_227/perm", "shape": [4], "dtype": "int32" },
        { "name": "PartitionedCall/split_72", "shape": [3, 3, 288, 288], "dtype": "float32" },
        { "name": "unknown_154", "shape": [288], "dtype": "float32" },
        { "name": "PartitionedCall/transpose_228/perm", "shape": [4], "dtype": "int32" },
        { "name": "PartitionedCall/Const_88", "shape": [4, 2], "dtype": "int32" },
        { "name": "PartitionedCall/transpose_230/perm", "shape": [4], "dtype": "int32" },
        { "name": "PartitionedCall/split_73", "shape": [3, 3, 288, 288], "dtype": "float32" },
        { "name": "unknown_156", "shape": [288], "dtype": "float32" },
        { "name": "PartitionedCall/transpose_231/perm", "shape": [4], "dtype": "int32" },
        { "name": "PartitionedCall/Const_89", "shape": [4, 2], "dtype": "int32" },
        { "name": "PartitionedCall/transpose_233/perm", "shape": [4], "dtype": "int32" },
        { "name": "PartitionedCall/split_74", "shape": [3, 3, 288, 288], "dtype": "float32" },
        { "name": "unknown_158", "shape": [288], "dtype": "float32" },
        { "name": "PartitionedCall/transpose_234/perm", "shape": [4], "dtype": "int32" },
        { "name": "PartitionedCall/Const_90", "shape": [4, 2], "dtype": "int32" },
        { "name": "PartitionedCall/transpose_236/perm", "shape": [4], "dtype": "int32" },
        { "name": "PartitionedCall/split_75", "shape": [3, 3, 288, 288], "dtype": "float32" },
        { "name": "unknown_160", "shape": [288], "dtype": "float32" },
        { "name": "PartitionedCall/transpose_237/perm", "shape": [4], "dtype": "int32" },
        { "name": "PartitionedCall/onnx_tf_prefix_/model.21/Concat/axis", "shape": [], "dtype": "int32" },
        { "name": "PartitionedCall/transpose_239/perm", "shape": [4], "dtype": "int32" },
        { "name": "PartitionedCall/split_76", "shape": [1, 1, 1152, 576], "dtype": "float32" },
        { "name": "unknown_162", "shape": [576], "dtype": "float32" },
        { "name": "PartitionedCall/transpose_240/perm", "shape": [4], "dtype": "int32" },
        { "name": "PartitionedCall/Const_92", "shape": [4, 2], "dtype": "int32" },
        { "name": "PartitionedCall/transpose_245/perm", "shape": [4], "dtype": "int32" },
        { "name": "PartitionedCall/split_78", "shape": [3, 3, 576, 192], "dtype": "float32" },
        { "name": "unknown_166", "shape": [192], "dtype": "float32" },
        { "name": "PartitionedCall/transpose_246/perm", "shape": [4], "dtype": "int32" },
        { "name": "PartitionedCall/Const_94", "shape": [4, 2], "dtype": "int32" },
        { "name": "PartitionedCall/transpose_251/perm", "shape": [4], "dtype": "int32" },
        { "name": "PartitionedCall/split_80", "shape": [3, 3, 192, 192], "dtype": "float32" },
        { "name": "unknown_170", "shape": [192], "dtype": "float32" },
        { "name": "PartitionedCall/transpose_252/perm", "shape": [4], "dtype": "int32" },
        { "name": "PartitionedCall/transpose_257/perm", "shape": [4], "dtype": "int32" },
        { "name": "PartitionedCall/split_82", "shape": [1, 1, 192, 11], "dtype": "float32" },
        { "name": "unknown_174", "shape": [11], "dtype": "float32" },
        { "name": "PartitionedCall/transpose_258/perm", "shape": [4], "dtype": "int32" },
        { "name": "PartitionedCall/onnx_tf_prefix_/model.22/Concat_2/axis", "shape": [], "dtype": "int32" },
        { "name": "unknown_128", "shape": [3], "dtype": "int32" },
        { "name": "PartitionedCall/Where_2", "shape": [0, 1], "dtype": "int32" },
        { "name": "PartitionedCall/Cast_38", "shape": [1], "dtype": "int32" },
        { "name": "PartitionedCall/GatherV2_2", "shape": [0], "dtype": "int32" },
        { "name": "PartitionedCall/zeros_18", "shape": [], "dtype": "int32" },
        { "name": "PartitionedCall/onnx_tf_prefix_/model.22/Concat_3/axis", "shape": [], "dtype": "int32" },
        { "name": "PartitionedCall/SelectV2_69", "shape": [1], "dtype": "int32" },
        { "name": "PartitionedCall/zeros_20", "shape": [], "dtype": "int32" },
        { "name": "PartitionedCall/Const_100", "shape": [], "dtype": "int32" },
        { "name": "PartitionedCall/Shape_23", "shape": [3], "dtype": "int32" },
        { "name": "PartitionedCall/SelectV2_70", "shape": [1], "dtype": "int32" },
        { "name": "PartitionedCall/Const_99", "shape": [], "dtype": "int32" },
        { "name": "PartitionedCall/ExpandDims_17", "shape": [1, 1], "dtype": "int32" },
        { "name": "PartitionedCall/Cast_42", "shape": [1], "dtype": "int32" },
        { "name": "unknown_5", "shape": [1], "dtype": "int32" },
        { "name": "PartitionedCall/Const_101", "shape": [], "dtype": "int32" },
        { "name": "PartitionedCall/onnx_tf_prefix_/model.22/Concat_5/axis", "shape": [], "dtype": "int32" }
      ]
    }
  ]
}
